data/vae.pth (torch, 706924 bytes, 21 tensors)

encoder.0.weight f4 [16, 1, 4, 4]
000000 7f 83 06 3d 50 ea dd 3a 23 b3 16 3d 30 31 0a be
       0.03284025 0.0016930792 0.03679193 -0.13495326
000010 8e e2 37 3d 6d 7b e9 bd d3 b7 23 3d 21 da 13 3e
       0.044893794 -0.11400495 0.03997023 0.14438678
000020 59 c3 9d bd 05 28 0e 3d a0 3f 24 3b 13 c4 75 bd
       -0.07703275 0.034706134 0.0025062338 -0.060001444
000030 0b b0 52 3d 86 59 a8 3d 28 00 87 bd d6 b3 11 bd
       0.05143742 0.082202 -0.06591827 -0.035571896
000040 54 99 47 3e 10 21 a3 3c 84 74 14 bd 49 57 2d 3e
       0.19492084 0.019913226 -0.03624393 0.16927828
000050 ef 4a d9 3c 5d 62 9e bd 91 98 16 3c a0 7e b1 3b
       0.026524989 -0.07733605 0.009191648 0.005416706
000060 57 97 bd bd eb f3 1b 3c 6e 4f 63 3c 69 e3 74 bd
       -0.092573814 0.009518604 0.013873918 -0.059787188
000070 bc 5a dc bd 10 17 14 3d 36 c0 5f bc f6 ac 27 be
       -0.10759494 0.036154807 -0.0136566665 -0.16374573
000080 90 98 4d 3e 73 af b6 3d c7 a9 94 bd ee 77 25 be
       0.20077729 0.08920183 -0.07258945 -0.16159031
000090 a5 6f 59 3d 03 ae 01 bd fe a6 43 bd 64 ec 00 bd
       0.05308499 -0.03166009 -0.047766678 -0.03147544
0000a0 a2 9f f9 bd 3d 17 41 bb 57 52 ad 3c e9 cf b5 3c
       -0.12188651 -0.0029463314 0.021157427 0.022193866
0000b0 a0 58 35 bb 6a d9 86 bd b6 01 cf 3d 08 10 16 3c
       -0.0027671233 -0.06584437 0.10107748 0.009159096
0000c0 77 87 15 bc 9b a6 a0 bc d3 cc 29 3c ef 23 0c bc
       -0.009126536 -0.019610694 0.010363775 -0.008553489
0000d0 05 76 48 ba 2b 9e 9a 3c 1c 03 90 bb 16 53 2a 3c
       -0.0007646981 0.018874248 -0.004394902 0.010395786
0000e0 1d 4b 97 bc 8f 7a bb 3c d5 f2 dc 3b 2d 68 04 3c
       -0.018468434 0.022885589 0.006742815 0.008081478
0000f0 7c 0c 01 3d ea c1 c1 bc 3d 92 5d bc 4f eb 26 bc
       0.031506047 -0.023652036 -0.013523635 -0.010187938
000100 bc 3b a7 bc 8c a9 48 3e 8a 27 b0 3d da 1e f3 3d
       -0.020414226 0.19595927 0.086012915 0.11871119
000110 3d 24 2a 3e 12 a2 23 bc 08 2a b0 bd a2 2a c9 bc
       0.16615386 -0.009987371 -0.08601767 -0.024556462
000120 ac f3 3f bd 4c 57 2d bd a0 73 7d 3d 28 a6 13 3d
       -0.046863243 -0.04231958 0.061877847 0.03604713
000130 9d bc 08 be 72 24 f9 bd d8 28 16 bd 89 6f e2 bb
       -0.133532 -0.121651545 -0.036660045 -0.0069102687
000140 60 19 2c 3e 9e 12 b6 bc 12 17 d2 bc 6b 58 d1 3d
       0.16806555 -0.022225674 -0.025645766 0.102219425
000150 c2 3c e3 bc f4 61 48 3d 61 b1 14 3b 68 5c 42 bc
       -0.027738933 0.04892154 0.0022688734 -0.011862852
000160 5a 96 f0 3c e5 16 c9 3c eb d2 dd 3c 46 32 ae bc
       0.029368568 0.02454705 0.027078113 -0.021264207
000170 36 87 3f be 5a dd f3 3c f2 f4 cf 3d cc f5 47 3e
       -0.18703923 0.029768635 0.101541415 0.19527358
000180 fe 94 87 3d bf f4 f0 bd e0 58 fc 3d 92 11 84 bc
       0.06620215 -0.117654316 0.12321639 -0.01612166
000190 e6 91 63 bc 13 21 d0 3d da 31 98 bd d2 83 0b be
       -0.013889765 0.101625584 -0.074313834 -0.13624504
0001a0 a0 e4 fe 3b 86 c0 30 bd 2f 19 5f bd 98 9e d0 3a
       0.007778719 -0.043152355 -0.054467376 0.0015916405
0001b0 b8 ac c8 3d 96 99 97 3c 2a 09 93 3d e7 de 32 3d
       0.097985685 0.018505853 0.07179482 0.043669607
0001c0 a6 9a 30 be 66 58 3c be 72 ed 81 bd ea c9 e6 bc
       -0.17246494 -0.18393096 -0.06344117 -0.028172452
0001d0 74 0e f1 3d 78 c1 95 3c 03 e2 fa 3d 9a 41 cd 3d
       0.11770335 0.01828073 0.122501396 0.10022278
0001e0 41 de 74 bd 1c e5 ea 3d d0 b1 eb 3c 8c 9d 7d bc
       -0.05978227 0.114694804 0.028771311 -0.015479457
0001f0 85 47 37 be da a3 fc 3c 3f ae 0d bd d2 a2 a8 3d
       -0.17898376 0.03083985 -0.034590002 0.082341805
000200 86 0a 76 3c c3 65 91 3d bb 3c 88 3d 9e d8 4a bd
       0.015017157 0.07099488 0.066522084 -0.04952299
000210 97 15 d4 3c 29 67 b0 bd fc aa c9 3a 96 87 c6 bc
       0.025889201 -0.08613426 0.001538604 -0.024234574
000220 95 d4 04 be de 25 85 3d a7 bd 8c 3b 97 82 07 bd
       -0.12971719 0.06501363 0.0042950693 -0.033083525
000230 04 01 dd 3d 4e 74 53 bd 45 07 6d bd bf 75 fb 3d
       0.10791209 -0.05162459 -0.05786826 0.12278318
000240 d0 9c e9 b7 c4 4d 28 b9 4c 61 48 39 80 c5 9e 36
       -2.7848786e-05 -0.00016050698 0.00019109732 4.731759e-06
000250 c0 00 41 b7 f2 77 79 b9 eb 4a 8c 39 00 bc 24 b9
       -1.1503871e-05 -0.00023791174 0.000267587 -0.00015710294
000260 40 5a d5 b7 ac 06 45 b8 4c a6 cf 39 66 c8 e2 b9
       -2.5433605e-05 -4.6974674e-05 0.00039606018 -0.00043255388
000270 46 bd 92 38 ca 67 8d 38 7f aa d9 38 d2 77 02 ba
       6.9970774e-05 6.742736e-05 0.00010379124 -0.0004976961
000280 0c 44 8b bd ef 09 94 3d 4e 92 ef bd cc 57 f3 3b
       -0.06800088 0.07228457 -0.11697827 0.0074262377
000290 b2 5f 5e bd 5e 27 94 3c ea 91 2c bb 84 87 8d bd
       -0.05429048 0.018085178 -0.0026332089 -0.06910613
0002a0 74 e8 b2 3d 9a d1 6f bb 34 54 bb bc b0 9d 88 3d
       0.08735743 -0.0036593438 -0.0228673 0.066707015
0002b0 bb 76 15 3c b4 d4 9a bd 89 b1 f7 3d b6 58 c0 bc
       0.009122546 -0.07560101 0.12094409 -0.0234798
0002c0 1c 84 21 3e df 27 bd bd 12 33 88 bd 02 9e 57 3e
       0.15773052 -0.092361204 -0.06650366 0.21056369
0002d0 10 91 0c bd f5 c3 ee bd 9e 88 da 3c 61 43 46 3b
       -0.03431803 -0.116584696 0.026676472 0.0030252563
0002e0 13 f8 c5 3d 81 d5 a9 3d e2 50 51 3d fe 0d e2 3c
       0.09666457 0.08292676 0.051102526 0.027594563
0002f0 61 26 08 3e 31 56 8c 3d d2 7e c8 3b 3c c9 a6 3d
       0.1329589 0.06852377 0.006118634 0.08143851
000300 c0 7a 7e b8 53 9e a1 3b 72 a8 56 3b 7f 31 3d bc
       -6.067264e-05 0.004932204 0.003275421 -0.011547445
000310 96 d8 b7 bb 21 c7 10 bc 72 a9 2d bc 47 e2 f7 3c
       -0.005610536 -0.0088365385 -0.010599481 0.030259265
000320 8d 8e 28 3c 69 00 eb 3b 42 74 95 3c 58 37 1e bd
       0.010287893 0.0071716798 0.018243913 -0.038627
000330 2e 0c ca bb df f8 25 bb 50 f4 3d bc a5 45 9f 3c
       -0.0061660027 -0.002532534 -0.011593893 0.019442389
000340 12 1c d4 bd b7 50 58 3d 51 59 b6 bd 26 05 0d 3e
       -0.103569165 0.05281135 -0.089037545 0.13771495
000350 93 b8 c9 3d af d5 cc bc 4a 47 b2 3d 1a 61 89 bd
       0.09849658 -0.025004236 0.087050036 -0.06707974
000360 c6 42 ca bd 03 ba 50 3c 21 2f 16 3c fa 2c 0e be
       -0.09876017 0.012739661 0.00916651 -0.13884345
000370 b4 73 ce 3d 7d e6 de bc 2b 05 c7 bc e7 f4 c0 3d
       0.10080662 -0.027209515 -0.024294456 0.094217114
000380 91 de 14 bd 42 2c de 3c 19 10 f6 bc ac 34 3a 3d
       -0.03634507 0.027120713 -0.030036973 0.045460388
000390 3b e1 d9 3c 81 a7 95 bc 09 d6 c7 3c 3d e0 cc bc
       0.026596656 -0.018268349 0.024394052 -0.025009269
0003a0 ef 6d ca 3c 0a 33 c8 bc e0 b2 c6 3b 6d d3 2e bd
       0.024710624 -0.0244384 0.006063804 -0.0426821
0003b0 05 92 a4 bc 6c 9c b2 3c 52 b6 b8 bb 29 09 dd 3c
       -0.020089159 0.021803103 -0.0056369686 0.026981907
0003c0 64 a6 24 be 6d 08 76 bd 12 a2 ad 3d 89 39 11 3e
       -0.16079098 -0.06006663 0.08478178 0.14182104
0003d0 3e 08 96 3d 9e b8 e9 3d f4 64 52 ba 88 da 8e ba
       0.07325791 0.11412166 -0.00080259074 -0.0010898868
0003e0 0a 8b e6 3c fc 40 1c bd 3a 1c d6 bd 38 89 00 be
       0.02814247 -0.03814791 -0.104546025 -0.12552345
0003f0 f8 82 9d 3d ad b5 36 bc 31 fa 4e 3d e2 a8 91 3d
       0.07690996 -0.011151713 0.05053157 0.0711229

encoder.0.bias f4 [16]
000000 17 a6 fc bc 6c 7f 2a bd f7 aa 8a bd d9 62 01 ba
       -0.030840917 -0.041625425 -0.0677089 -0.0004935689
000010 93 6c cd 3d 36 0a 2a 3e 05 38 bb bc ba 53 93 3d
       0.100304745 0.16605458 -0.02285386 0.07193704
000020 0f 73 be 3c 0b b8 0b ba 84 7f 00 bd 72 16 08 3e
       0.023248224 -0.0005329854 -0.03137161 0.13289812
000030 4f 78 05 ba 08 70 29 3c 56 77 02 3a 40 0a 9f 3d
       -0.0005091475 0.010341652 0.0004976889 0.07765627

encoder.2.weight f4 [32, 16, 4, 4]
000000 34 25 84 bc e4 2d f7 bb 65 a8 2f bb 07 15 99 3c
       -0.016131021 -0.0075433124 -0.0026803252 0.018686784
000010 fa f9 a9 3a d3 ee d6 bb f6 ca a8 bb 0e 00 0a bb
       0.0012968176 -0.006559232 -0.005151148 -0.0021057162
000020 96 fd 0d bc 2c 52 fe 3a b4 fe b5 3b bb d9 be 3c
       -0.008666417 0.0019403151 0.0055540446 0.023297181
000030 30 02 88 3c 48 cc 01 ba fa 96 68 bc ae 47 06 bd
       0.016602606 -0.00049514 -0.014196152 -0.032783203
000040 d0 f7 cf bc a5 42 a0 bb af 00 d2 bc 0b 5d 13 bd
       -0.02538672 -0.004890757 -0.025635092 -0.035977405
000050 90 f1 0c bd 8c 82 5a 3b 06 48 95 3b ac 19 41 3a
       -0.03441006 0.0033341972 0.004555705 0.0007366191
000060 d0 4e 28 bc c3 c1 66 3c 12 10 07 3d a5 e7 21 3c
       -0.010272697 0.014084282 0.03297431 0.0098818885
000070 b1 52 1e bd 62 e2 4a bb 23 c7 dd 3c a9 7e 46 3d
       -0.03865308 -0.0030957689 0.027072495 0.048460636
000080 df b8 37 bd 60 7e 78 bc 25 b4 2f 3b 3f 2f 82 3d
       -0.04485404 -0.015166849 0.0026810255 0.06356668
000090 40 1a 61 bc 6c c6 50 b9 46 0c fb bb 0d 55 a4 3b
       -0.013739169 -0.00019910344 -0.007661375 0.0050150217
0000a0 ed 75 ba bb 79 4c 6c 3c c8 ad 95 bc 3a f0 98 bb
       -0.0056903274 0.014422529 -0.018271342 -0.004667309
0000b0 23 23 b2 bb 32 b3 4e 3c 35 16 b3 3b fe e3 34 bd
       -0.0054363175 0.012615966 0.005465294 -0.044162743
0000c0 21 a6 21 ba 52 0b 24 3b 43 c8 be 3a f0 bd 97 3a
       -0.0006166418 0.0025031161 0.0014555532 0.0011576992
0000d0 9c 1c ff 3a 38 e6 14 3b bc 95 ab b9 ba 79 d9 3a
       0.0019463482 0.002272023 -0.00032727222 0.0016592063
0000e0 cb 59 29 3b bb df 0f ba d9 37 47 b9 f6 12 c1 3a
       0.0025840874 -0.00054883555 -0.00018998924 0.0014730382
0000f0 02 16 98 3b 24 7d ba ba 2f 8c 63 ba 10 34 8d 3a
       0.0046412954 -0.0014227969 -0.0008680252 0.0010772962
000100 f2 9e e9 bc 69 6f 9a 3b a7 7f d7 3b 70 98 06 bd
       -0.028518174 0.004712988 0.0065764966 -0.03286022
000110 68 c7 48 bb 99 e4 4d bc 5c 75 64 bb 29 a2 9e 3c
       -0.0030636434 -0.012566709 -0.003485999 0.019364433
000120 c7 8d 58 3c b6 95 e7 3c c0 82 ab 3b 36 af d3 3a
       0.013217396 0.02826963 0.0052340925 0.0016150239
000130 e7 ec 8a bd 24 52 93 bc 59 72 8a bc 9e fd 80 3c
       -0.06783467 -0.017983504 -0.016900228 0.015745934
000140 87 3c 82 bc ba 11 b2 bc 9a d2 3d 3b 8e 16 bc 3c
       -0.015898002 -0.021736968 0.002896464 0.022959974
000150 49 eb 5f bc 84 25 82 bb 94 37 71 bc 9b 2d ea bc
       -0.013666936 -0.0039717574 -0.0147227235 -0.0285862
000160 de ab f1 bc 91 5a a6 3c d4 70 4d 3c 06 77 2f bc
       -0.029500898 0.020306857 0.012539107 -0.01070953
000170 34 ad 82 bd 0f 12 e8 3c fe 4e 17 ba 62 b4 12 bd
       -0.06380692 0.028328924 -0.00057719636 -0.035816558
000180 29 f8 ed bc 7a 74 0b 3a f6 e3 a2 bb cc 8e b6 3c
       -0.029048996 0.00053197856 -0.0049710227 0.022284888
000190 e4 d4 d7 bc 45 29 4e bb e4 2f 5c 3b 0a f9 af bc
       -0.026346631 -0.0031457704 0.003359788 -0.021481056
0001a0 c8 12 eb 3b 1e b3 43 bc 9a 16 38 bc 15 03 d5 bc
       0.0071738698 -0.01194456 -0.011235857 -0.026002446
0001b0 51 dd 40 3d 19 e8 17 3d 57 f1 56 3c f9 93 8e 3c
       0.047086064 0.03708658 0.013119063 0.017404543
0001c0 ba 21 0b 3d 87 5f 81 3c 3e 53 31 bc b5 2e 05 3d
       0.03396771 0.015792621 -0.010823069 0.032515246
0001d0 20 c4 33 3d 4f 52 39 ba 90 c4 89 bb df 24 9c bc
       0.04388821 -0.0007069455 -0.0042043403 -0.01906055
0001e0 7f 0d d3 3b cb c8 44 bb 7b 4d a4 bc d7 97 ae bb
       0.006440818 -0.0030026908 -0.020056477 -0.0053281593
0001f0 e9 2d 66 bd f4 15 9d bc 64 6e 63 3b d3 03 81 bd
       -0.056196127 -0.019175507 0.003470325 -0.062995575
000200 83 44 2d bd 63 f8 8a 3c 98 61 a3 3c 5d 92 34 3d
       -0.042301666 0.016964143 0.019943997 0.044084895
000210 26 0c f1 bb 8c 1f d7 bc 33 50 2f bc d6 03 70 3c
       -0.0073561845 -0.02626016 -0.010700273 0.014649352
000220 eb 86 b6 3c 08 c6 b8 ba b2 a3 bf bb ab 7b 2c ba
       0.02228113 -0.0014097104 -0.0058483714 -0.0006579707
000230 c7 ab fb 3c 9c 12 fa 3c fc 6d db ba cf de 01 bd
       0.030721558 0.030526452 -0.0016741152 -0.031706627
000240 da a6 be 3a e7 d6 36 39 20 aa 94 ba 51 5f 3a 3a
       0.0014545575 0.0001743693 -0.0011342205 0.000710954
000250 aa 52 df 38 ef 7e 85 3a c4 bb d8 39 d0 53 9f 3a
       0.00010648866 0.0010184924 0.00041338627 0.0012155715
000260 c6 2f 5a ba 0e e9 b9 3a 87 36 ec 3a d4 a6 d3 3a
       -0.0008323159 0.0014183836 0.0018021622 0.0016147741
000270 5e d4 6e ba 7c d0 01 3b 1e 0f 08 3b de 39 83 3a
       -0.00091106247 0.0019808104 0.0020760964 0.0010011753
000280 1b 22 59 3c 0a 6f 8d bc ed 62 5f 3b 8d e3 ce 3c
       0.01325276 -0.017264862 0.0034086064 0.025254989
000290 41 b6 c5 3c db 0f 04 bc 99 47 90 bc 52 b8 b1 3a
       0.024134757 -0.008060421 -0.017612265 0.001355896
0002a0 9e 29 cb 3b b9 e1 d8 bb 42 62 9b bc 7f 68 9f bc
       0.0062000295 -0.006618705 -0.018967751 -0.019459007
0002b0 bc e5 a8 b9 79 ed 6d ba 0f 7a fd 3b 8a 06 6f bb
       -0.00032214622 -0.00090762187 0.007735498 -0.0036472403
0002c0 55 e9 07 bd e2 f0 c6 3b 4b 78 84 bc 92 f6 83 bc
       -0.033181507 0.006071196 -0.016170641 -0.016108785
0002d0 f8 69 79 bc 1f dd f1 3c 64 72 eb 3b 5a f1 67 3a
       -0.015223019 0.029524384 0.0071852673 0.0008847915
0002e0 9a 51 3d 3b 4b 36 e8 bb 71 2b 64 3c 4d c6 f3 39
       0.002888775 -0.0070865504 0.013926373 0.00046496317
0002f0 0f 47 73 3d cc f9 bc 3b 98 34 2a 3a a2 91 03 3d
       0.05939394 0.005767083 0.00064928224 0.03212131
000300 9a 45 75 3a 9b 22 9f ba 84 6e 14 ba 38 af 2c ba
       0.000935638 -0.001214105 -0.000566222 -0.0006587389
000310 2b 1a ad ba e6 f8 a1 3a c0 60 ce ba 74 28 0b 3a
       -0.0013206651 0.0012357503 -0.0015745386 0.0005308457
000320 a4 86 96 ba 48 fa 9d b9 4d 29 d6 3a c3 aa 3a 3a
       -0.0011484218 -0.00030131848 0.0016339213 0.00071207824
000330 06 d7 30 ba 57 e2 61 3b 84 e9 9c ba 6a 31 37 3b
       -0.0006745908 0.0034467184 -0.0011971449 0.0027953037
000340 c6 90 19 bc 5c 31 13 3c 71 a7 e0 bc 57 a0 80 bc
       -0.009372896 0.008983936 -0.027423592 -0.015701456
000350 1c 1d e5 3b b6 bf 62 bc f2 0a 3a 3b f0 c0 0b bd
       0.0069919955 -0.013839653 0.0028387872 -0.034119546
000360 20 c5 db ba a6 f1 2a bc eb de 0b bc 89 28 d7 bb
       -0.0016767122 -0.01043359 -0.0085370345 -0.0065661115
000370 de b4 f7 3b 82 c1 24 3d 01 a3 28 3c 84 42 b5 3b
       0.007559403 0.040223606 0.010292769 0.005531611
000380 7c 9a ae 39 ca 9b 74 ba 5c 2f 0a 3b 2a 30 38 bb
       0.00033302966 -0.00093310757 0.0021085357 -0.002810488
000390 96 9b 0e bb 58 98 af 3a c2 fb 4c 3a 1f 83 93 bb
       -0.0021760217 0.0013396842 0.0007819497 -0.004501715
0003a0 c3 18 bc 3a cd 9f f4 ba fc 30 17 3a 58 ca 91 bb
       0.0014350641 -0.0018663347 0.0005767492 -0.00444917
0003b0 cc 02 4e ba f8 eb 2b 3a 82 2e 86 ba f2 a7 c9 39
       -0.0007858693 0.00065582944 -0.0010237249 0.00038462837
0003c0 c8 35 5c 3c b5 81 a6 3c c7 7a 77 bc 0f b0 6d bd
       0.013440557 0.020325521 -0.015104956 -0.05802923
0003d0 ae b4 15 3a d4 69 42 3b d7 93 2a 3c f3 ae ff bc
       0.00057108223 0.002966513 0.010411224 -0.031211352
0003e0 aa 34 16 bc 6e a7 06 bc 68 70 90 ba f9 a9 90 3c
       -0.0091678295 -0.008218629 -0.0011019828 0.017659174
0003f0 7c a8 c9 bb 3c bf 9a 3c c3 86 b2 3c 04 0e 2a 3d
       -0.006154118 0.018890016 0.021792775 0.041517273

encoder.2.bias f4 [32]
000000 e3 a2 ce 3c 05 45 2b bd bf 36 7e 3d c5 e1 aa 3d
       0.025224155 -0.04181387 0.06206393 0.08343843
000010 34 b1 2d ba 61 f0 e6 3b ae cd c5 bd 64 de b7 bd
       -0.00066258316 0.0070476984 -0.09658371 -0.089779645
000020 41 e9 c2 3a 48 18 b0 38 40 19 9b 3c d2 1c e7 39
       0.001487054 8.396857e-05 0.018932939 0.00044081226
000030 da a9 21 bd 6b 53 34 bd 72 4d c0 bc ee b2 03 3c
       -0.039468624 -0.044024866 -0.023474429 0.008038266
000040 94 22 bd 3c 22 19 cf 3d 10 7e 8b 3a fc c6 9f b8
       0.023087777 0.101122156 0.0010642428 -7.6187745e-05
000050 e0 cf b3 bb 66 9b 54 3c 48 0f 92 3d dc 09 01 be
       -0.005487427 0.012976503 0.07131821 -0.12601417
000060 e6 8b 06 3b b4 d4 70 3c 8f 19 8b 3a 35 6d be bb
       0.0020530163 0.01469915 0.0010612475 -0.0058113583
000070 fa 51 cb bc d8 19 0a 3e ef c6 b0 3c 84 16 e1 bb
       -0.024819363 0.13486421 0.021579234 -0.006869139

encoder.4.weight f4 [64, 32, 3, 3]
000000 82 e5 96 3b 11 cd c8 bc 47 89 e8 ba 90 19 17 3c
       0.004604996 -0.024511846 -0.0017741107 0.009222403
000010 a7 d9 8b 3b ab c4 86 bb cb b4 4c 3c a8 03 5a 3c
       0.0042678895 -0.0041128 0.012494276 0.013306536
000020 63 28 2f bc 65 99 81 3b 83 c9 36 3c aa 05 0e 3d
       -0.010690781 0.0039550536 0.011156443 0.03467337
000030 11 df 5e bc 2e c7 88 bc fe 7d 13 bd 8f 37 cf bc
       -0.013602988 -0.016696539 -0.036008827 -0.025295047
000040 60 34 82 bb 73 0f 85 bc f4 d4 a0 bc 8d df cc 3c
       -0.0039735287 -0.016242718 -0.019632794 0.025008941
000050 10 26 80 ba 6a 78 ea bc e3 8b 15 3c 52 4e fd 3a
       -0.0009776969 -0.028621871 0.00912759 0.001932571
000060 80 2e e4 3c 10 07 bb bb f8 9e 35 3d f0 35 f6 ba
       0.027854204 -0.005707629 0.044341058 -0.0018784385
000070 77 4d 69 3b 56 6c 46 3b 70 0d d3 3a 18 0f 95 bc
       0.003559915 0.0030276976 0.0016102027 -0.018195674
000080 1d 4a fe 3c 41 7a 0c 3d be f5 2b 3c 6e 7a 1a 3c
       0.0310412 0.034296278 0.010495601 0.009428604
000090 2a a3 0e 3b d6 c4 f0 b8 8c a9 a5 b9 88 8f c6 b9
       0.0021764734 -0.00011480755 -0.00031597575 -0.00037872442
0000a0 b3 a0 a9 3a d4 67 47 3a 7d 7d aa ba 5e 10 0c 3b
       0.0012941569 0.0007606719 -0.0013007369 0.002137206
0000b0 40 71 61 3a 9c 57 00 bc 5b 67 8f 3b 8f d4 9f bb
       0.00085999444 -0.007833388 0.0043763346 -0.004877634
0000c0 98 01 1e 3a d6 77 c1 3a 64 bc 4b 3b bd e4 d9 3b
       0.0006027459 0.0014760445 0.0031087631 0.006649582
0000d0 96 75 92 3a 07 9b a6 bb 3a 81 01 bd aa 82 9d bc
       0.0011173959 -0.0050843987 -0.03161738 -0.019227345
0000e0 62 e5 0f bd a9 58 99 bc 92 67 e2 3c 6c f4 f9 3c
       -0.035130866 -0.018719034 0.027637277 0.030512057
0000f0 0c 8f a0 bc ba 8b 7d 3d 6e 5a 56 bd 16 33 b7 3b
       -0.01959946 0.06190083 -0.052332334 0.0055908067
000100 9c 64 e7 bc f7 e4 9b bc a3 15 f0 bc 65 a1 8b 3c
       -0.028246216 -0.019030077 -0.029307192 0.017044732
000110 67 1e 7f 3b 86 c8 96 3c 21 5e 4c 3c 4d 71 6a bc
       0.0038928033 0.018406164 0.012473614 -0.01430924
000120 e3 63 10 3a fb 31 dc ba b6 ae 05 ba ba 81 2d 3a
       0.00055080483 -0.0016799563 -0.00050995813 0.0006618757
000130 5d 0b 22 bb 1b 4d 06 3b bc ec 4a bb ab 13 b8 ba
       -0.0024726011 0.0020492736 -0.0030963859 -0.0014043947
000140 16 fd 3d 3a 55 80 82 3a 05 27 b3 ba c0 16 d1 38
       0.00072474906 0.0009956459 -0.0013668245 9.970134e-05
000150 62 91 d0 39 91 d8 36 ba c8 37 b8 3a 00 e8 55 37
       0.0003978117 -0.000697502 0.001405471 1.2749806e-05
000160 44 2a f0 3a f1 83 01 ba 7f 3c 75 bc de 69 91 3c
       0.0018323143 -0.000494062 -0.014968037 0.017750677
000170 6b eb 81 bc 57 b7 92 3c 02 7e b4 bc cd 18 5a 3c
       -0.015859326 0.017909689 -0.022032741 0.013311577
000180 16 08 e1 bc f6 90 23 bd ab eb 01 bd 8e cc 0a ba
       -0.027469676 -0.039933167 -0.03171889 -0.0005294763
000190 03 78 d1 39 a5 f0 ae ba 14 08 38 ba 8c 1b 94 ba
       0.00039953002 -0.0013346864 -0.00070202467 -0.0011299714
0001a0 1c a7 2c 3a d0 ce 41 bb db 82 74 ba 33 66 47 3a
       0.00065861805 -0.0029572733 -0.00093273603 0.00076064764
0001b0 63 fb 50 bc ba c5 90 3c 92 1d 05 3b 72 69 5d bc
       -0.012755248 0.017672408 0.0020311815 -0.01351391
0001c0 c0 ef 35 3c 4b 21 40 bd cf 16 45 3d 80 8f a4 3c
       0.011104524 -0.04690675 0.048117455 0.020087957
0001d0 c0 e4 28 3d a3 aa e0 3c 4c ed f3 ba 2c 0f 00 3c
       0.041233778 0.027425116 -0.0018610149 0.007816117
0001e0 6d f0 ca 3b 93 cf cd 3b 90 74 b4 3b 8b 6d 07 bd
       0.006193212 0.0062808483 0.0055070594 -0.033063453
0001f0 51 58 dd bc 86 8b 1e bc cc 56 3b bd 47 32 1d bd
       -0.027019652 -0.00967682 -0.045737073 -0.038378026
000200 39 3a 12 bc 6f 2e e4 bb 21 43 9a 3c 20 79 d7 3b
       -0.008925014 -0.006963543 0.018830838 0.0065757185
000210 dc 42 37 bd 71 99 b7 bc b6 99 ea bb 5f 55 bf 3c
       -0.044741496 -0.022412034 -0.007159437 0.023356138
000220 e2 50 82 3c 6a 95 d6 3c 58 c6 7f bc d0 23 3b bd
       0.015907709 0.026194293 -0.015611254 -0.04568845
000230 26 d7 a0 bc 68 5a 2b bc dc d2 20 bc 55 46 24 bd
       -0.01963384 -0.010458566 -0.009815898 -0.040106136
000240 5e 97 c2 bb 40 0d eb bb 6c d0 e9 bb ef d4 32 3b
       -0.0059384545 -0.0071732104 -0.0071354415 0.0027287563
000250 97 e4 58 3c cc ae a2 3a 0c ca 95 bc cf 97 99 3b
       0.013238094 0.0012411713 -0.01828482 0.0046872864
000260 6e a8 fa bb 42 2e 90 bc 3e b5 a3 3c 70 dd 81 3c
       -0.007649473 -0.017600182 0.019983884 0.01585266
000270 7c 21 c4 bb e4 d2 8b bc de f2 15 bd 9f bc 33 3c
       -0.005985437 -0.017068334 -0.03660857 0.010970264
000280 e4 fe 61 3b 3a 8a b6 3c 22 75 16 3a 1a 22 ae ba
       0.0034484202 0.022282708 0.00057395 -0.001328531
000290 1a 74 14 ba 7e 17 9d 3a 79 fb 58 ba 68 05 bb 3a
       -0.00056630524 0.0011985151 -0.00082772184 0.0014268579
0002a0 ae 25 67 bb fa e6 73 3a ae fe f1 b8 21 16 22 bb
       -0.0035270262 0.00093041325 -0.00011539213 -0.0024732428
0002b0 c8 53 9e 3a 32 b3 43 ba 18 84 cc ba 31 83 01 39
       0.0012079412 -0.0007465362 -0.0015603332 0.00012351271
0002c0 24 a9 d8 39 ed 21 6a bb e2 a6 28 3a 0e 91 ec ba
       0.0004132475 -0.0035725788 0.0006433559 -0.0018048601
0002d0 5c d5 2d 3d b3 34 c1 bb 18 3e b3 bc 64 9b 09 bd
       0.042439803 -0.005896175 -0.021880195 -0.033595458
0002e0 e7 5d ed 3c c6 86 35 3d df 1d e0 bc b6 a8 8a bc
       0.02897544 0.044317983 -0.027357994 -0.01692615
0002f0 76 d1 f9 bc 1d 11 45 3c d4 ab fa bb 78 25 9a 3c
       -0.030495387 0.012028006 -0.007649878 0.018816695
000300 5a 0e b2 3c 10 be 1b 3c 90 05 15 bc 94 12 0f bc
       0.021735359 0.009505764 -0.0090955645 -0.008732457
000310 28 18 b9 3b 74 fe 41 3c bc aa 8a 3a 7f af 76 3c
       0.0056486316 0.0118404515 0.0010579447 0.01505649
000320 ed 75 a4 bc 81 16 cc bc 28 b3 d4 bb 00 e3 11 38
       -0.020075763 -0.024913074 -0.0064910837 3.4782104e-05
000330 b2 36 71 3c 76 83 06 bd a7 be 15 bc 52 40 8d bd
       0.014722513 -0.032840215 -0.009139693 -0.06897034
000340 be 42 a4 3c e5 6c 06 bd ac 35 8e bc f3 0f 25 3c
       0.020051356 -0.032818694 -0.017359577 0.010074603
000350 53 93 8f 3c 9a b2 73 bb 98 c7 55 bd 30 8a b6 ba
       0.017526304 -0.0037185312 -0.0521923 -0.0013926681
000360 3a e5 32 3b 72 5d 96 bb c0 36 97 3a e4 18 3d 3b
       0.0027297274 -0.0045887763 0.0011536703 0.0028853947
000370 03 db 94 bb 97 85 1d 3b 44 cf b1 ba ca c9 e1 ba
       -0.00454271 0.0024035925 -0.0013565798 -0.0017226276
000380 44 37 59 3a a7 03 93 bc 36 5c c5 bb c4 6a 71 bc
       0.0008286128 -0.017946078 -0.0060229553 -0.014734928
000390 95 e9 04 3d 6f 57 2a 3a 02 5b 8c 3c 54 f0 2f b9
       0.032449324 0.0006498014 0.01713324 -0.0001677883
0003a0 33 6c 83 3c ca af a0 3a 2f 31 f8 3a 9c aa ff ba
       0.016042804 0.001225942 0.0018935556 -0.0019505802
0003b0 02 e8 dd 3a 45 d5 b4 3a b7 26 0a bb 6d 20 17 3b
       0.0016930106 0.001379647 -0.0021080205 0.0023060099
0003c0 3c c6 08 bb e7 31 16 b9 a9 7c d7 3a 2d c8 1a 3c
       -0.002087011 -0.00014323705 0.001644035 0.00944714
0003d0 76 7e df bb 6e ee 27 3d a1 ee 31 bc 2a 05 41 bc
       -0.0068204952 0.04099887 -0.010860116 -0.011781016
0003e0 6e 25 81 3c a2 c4 9e bc fa ed a4 3c e0 22 4e bc
       0.015764918 -0.019380871 0.020133007 -0.012581557
0003f0 90 7b 36 39 52 94 bc 3b 4f 3e 10 3d eb 3d a6 bc
       0.00017402903 0.005754986 0.035215672 -0.020293197

encoder.4.bias f4 [64]
000000 ec 6d 9a 3d 2d ed c6 3d 3e b6 bb bd cb 28 e1 bd
       0.07540497 0.097132064 -0.09165619 -0.10994109
000010 38 95 26 bc 80 f9 03 3e cd c2 59 3d c8 3a e8 bc
       -0.010167412 0.12888145 0.053164292 -0.028348342
000020 00 1e a4 bc fb 78 8c bd 6e 17 9b 3d 14 ac 9b bd
       -0.020033836 -0.06859013 0.07572828 -0.07601181
000030 f7 27 41 bc 0e ab dc bc dc 01 7e bd a0 94 8c 3d
       -0.0117893135 -0.026937034 -0.062013492 0.068642855
000040 2d 91 8c bc 94 77 f2 3b 8a ec a4 bd 20 e3 7c 3d
       -0.017159069 0.0073995087 -0.08052929 0.06174004
000050 48 36 d9 3c 82 af 5c 3d 87 98 a9 3d 8c 70 24 3e
       0.026515141 0.053878315 0.082810454 0.16058558
000060 94 63 0e 3d fe 2d 57 bd 0e 05 8d ba 9c b5 ae bd
       0.034762934 -0.052534096 -0.0010758953 -0.08530733
000070 3a 9c 22 bd aa 89 8b bb 8a 52 93 bc 7f 54 94 ba
       -0.03969977 -0.004258354 -0.017983694 -0.0011316686
000080 86 d1 51 3e 20 6d 2d bd 7f b1 c2 bb 49 01 4a 3d
       0.20490083 -0.042340398 -0.0059415693 0.049317632
000090 4f f7 e9 bc 72 b8 89 bc 1a a5 55 bd d4 d3 9a 3e
       -0.028560309 -0.016811583 -0.052159406 0.30239737
0000a0 45 28 f4 bc db 29 58 3d f0 11 87 3e 24 df b1 bd
       -0.029804358 0.05277429 0.26380873 -0.08685139
0000b0 d8 7c 2d 3c 56 d0 5a 3c 30 ac 4e bc 61 dd e1 bd
       0.010588847 0.013355335 -0.012614295 -0.11028553
0000c0 6f e1 c7 3b 42 d1 d3 3d ca 82 5f 3d c5 89 31 bc
       0.006099872 0.10342647 0.05456809 -0.0108360695
0000d0 6f e4 83 bd f3 13 bf bc c5 38 db 3b 13 28 82 bb
       -0.064400546 -0.023324942 0.006690117 -0.0039720624
0000e0 44 49 91 3d 44 dd ac bc df 2f db bc 1c 7c f5 3c
       0.070940524 -0.021101601 -0.026756225 0.029966407
0000f0 bc ef 8b bd 17 9f f4 3c eb 04 5b bd 14 9f a4 bb
       -0.06832835 0.029861016 -0.053471487 -0.0050238464

encoder.6.weight f4 [128, 64, 1, 1]
000000 36 14 15 3c e7 55 d9 3c 1c d1 85 3d 66 31 0b 3e
       0.009099057 0.02653022 0.06534025 0.13593063
000010 54 c7 e5 bd af 2b 48 3c 91 68 1c bb 0f ad 73 3d
       -0.112196594 0.012217446 -0.0023866037 0.059491213
000020 4a 94 b4 39 57 81 32 bd 2d 0e 02 bd df e6 a9 bd
       0.0003444276 -0.04358038 -0.0317518 -0.08295988
000030 58 1b b2 bb be 72 c8 3c 45 87 9e 3d 40 a5 10 be
       -0.0054353885 0.024468776 0.07740644 -0.14125538
000040 ce f7 03 be 79 19 5d bc c4 80 b4 bc e2 71 66 3d
       -0.12887499 -0.013494843 -0.022034056 0.05626095
000050 fa 69 90 bc 10 59 65 3d f2 7a c8 3a 8f 23 f9 bc
       -0.017628659 0.05599314 0.001529543 -0.030412463
000060 e9 d7 2f 3b 27 0c 94 bd 40 d6 d8 b6 99 c9 08 bd
       0.0026831573 -0.072288804 -6.4622436e-06 -0.033395384
000070 d0 4f 2c bc 5e e4 1c bd 30 b8 26 3d ee f5 57 ba
       -0.010517076 -0.038303725 0.040703 -0.00082382455
000080 0a 9c 12 bc 48 eb 1a bc 25 22 ba 3b a0 86 24 bc
       -0.008948335 -0.0094555095 0.00568034 -0.010041863
000090 36 dc 79 3d 08 2d 97 3a 69 aa 8d bd f4 5e 08 3e
       0.061001025 0.0011533806 -0.06917269 0.13317472
0000a0 2c 90 be 3c bf be 23 bc 16 31 b6 3d ee 48 c2 3d
       0.023262106 -0.009994208 0.08896081 0.094865665
0000b0 99 30 0d be 30 b5 f1 3c 35 a9 a3 bc 9d 05 7b bc
       -0.1378807 0.029505342 -0.019978145 -0.0153211625
0000c0 49 e1 09 3d 89 3c b9 bd 8d 57 84 3c d3 e4 ac 3d
       0.033662114 -0.09044749 0.016155029 0.08442082
0000d0 9a 65 0c bd 16 ec 28 bd e0 9a 91 3c 12 e4 97 3c
       -0.034276582 -0.041240774 0.017774045 0.01854137
0000e0 e2 34 8d 3d 30 ff d4 3d 88 b3 28 3d 59 e4 d0 bd
       0.06894852 0.10400236 0.04118684 -0.10199804
0000f0 c7 3e 8b 3d 13 b0 d9 3a 34 b9 c5 3a 50 94 83 bd
       0.06799083 0.001660826 0.0015085102 -0.06424773
000100 85 00 b7 3b cb c6 6d bd 22 3b 8b 3c 19 d5 ac bd
       0.0055847787 -0.058050912 0.01699597 -0.08439083
000110 7d 94 71 3c 7a dc 96 bc 06 73 6d bc fa 5e 8f 39
       0.014744875 -0.018415678 -0.014492756 0.00027345849
000120 9b ae 97 3c 13 66 49 3d 49 03 b9 3c 22 e6 d7 3a
       0.018515876 0.04916961 0.022584574 0.0016471783
000130 95 19 e9 3b 66 cc 4b bd 22 56 38 3b 21 0d 97 bc
       0.0071136453 -0.049755476 0.002812751 -0.018438878
000140 03 2e 16 bc 96 bd 7e bd 50 f6 50 3b 1c 93 8f 3d
       -0.0091662435 -0.062192522 0.0031885095 0.07010481
000150 58 49 87 bd 1c ec 6d 3c 00 34 5d 37 46 e3 58 ba
       -0.06605786 0.014521625 1.3184734e-05 -0.00082736125
000160 68 9f 55 bd da 56 79 3c 87 0d c5 b9 f6 82 81 bd
       -0.052153975 0.015218461 -0.00037584847 -0.06323807
000170 2d b0 ea bc c4 b8 82 3d 91 b7 4f bd fd fb 92 ba
       -0.02864846 0.063828975 -0.050712172 -0.0011214014
000180 f4 e5 ed 3c 31 43 cb ba b6 ce 9d ba 68 34 15 3d
       0.029040314 -0.0015507695 -0.0012039754 0.03642693
000190 0b f4 1a 3d b8 30 74 bc c8 e3 07 3a fa 1a 20 3d
       0.037830394 -0.014904194 0.00051837834 0.039088227
0001a0 58 4b 5f bc 35 e1 0e 3b c7 be a2 3c 3a 33 97 bc
       -0.013628803 0.0021801714 0.01986636 -0.018457044
0001b0 8e 59 c8 3c 7e 4e 4f 3d 53 8d 68 bc 13 af 17 bc
       0.024456766 0.050611965 -0.014193851 -0.00925805
0001c0 27 f8 18 bd c4 e8 47 3d c8 d2 68 3d 11 57 2b 3b
       -0.03734603 0.048805967 0.05684164 0.0026144425
0001d0 43 06 81 3a 5e 7c 92 3d 6d bc 13 3c 1f 6f d5 bc
       0.0009843785 0.071526274 0.009017092 -0.026053963
0001e0 35 2a a8 3d 56 41 f0 3c 13 55 16 3b 0a 43 4b bc
       0.08211175 0.02932803 0.0022938892 -0.01240612
0001f0 99 10 cc 3d 30 1c aa 3c 46 91 c4 3c f7 34 64 3c
       0.09964103 0.020765394 0.023995053 0.013928643
000200 81 20 79 3d 50 5e 8f 3c e7 75 8c 3d a2 78 e5 bd
       0.060822014 0.017501026 0.068584256 -0.112046495
000210 7c 4d 78 bd d3 ed 90 3c ba 5d 23 3c f1 47 0c bd
       -0.06062077 0.017691528 0.009971077 -0.034248296
000220 c7 75 c9 3c 3d 3c b1 bc a9 d9 89 3d 12 16 65 3d
       0.024592293 -0.02163517 0.067309685 0.05592925
000230 be 95 89 bb f8 78 2f bb 21 bd 42 bd 55 6b c6 bd
       -0.004198759 -0.0026774984 -0.04754365 -0.09688441
000240 5c 32 4f bb 3c 80 b9 bc 3e b7 5e 3d cc 58 94 3d
       -0.003161571 -0.022644155 0.054373972 0.07243499
000250 28 dd aa 3d 5f 1a 31 bd be 71 96 3c 65 d3 d3 3c
       0.083429635 -0.04323804 0.018364783 0.025857637
000260 c6 1f 7e 3c 52 01 77 3d dc 23 28 b9 ba 6e 77 bd
       0.015510505 0.060303994 -0.00016035087 -0.06040833
000270 ea 98 cd bc b4 03 97 bc 39 47 28 3d 47 4d 46 ba
       -0.02509733 -0.018434383 0.04108355 -0.0007564616
000280 19 4a b0 3b 78 ff e5 bc ac c7 c9 38 7e 7e c8 bd
       0.005379927 -0.028075919 9.621619e-05 -0.097897515
000290 cc 59 2c 3c 68 af c2 bc be 41 90 3c 99 3b 3c bd
       0.010519456 -0.02376528 0.017609473 -0.045955274
0002a0 2e 64 cb 3d 64 14 17 3b ac dc 1b 3d c6 73 88 3c
       0.09931217 0.0023052925 0.038052246 0.016656768
0002b0 52 5e 20 bd da 5e 06 3e d3 c6 95 bd 14 3d af bd
       -0.03915245 0.1312212 -0.07313313 -0.085565716
0002c0 ec 62 9c bc 47 5c 9b 3c a2 ca af bc 0d da 00 bc
       -0.019090138 0.0189649 -0.021458928 -0.007864487
0002d0 68 cc bb 3d c1 ed 4f 3d 1f 95 34 bc e2 11 56 3c
       0.09169847 0.05076385 -0.011021881 0.013065787
0002e0 1a b8 82 3d 34 7b 9f 3c 33 43 eb 3b 7f 15 94 3d
       0.06382771 0.019467928 0.0071796416 0.072306626
0002f0 8f ea e6 3c c1 75 03 bd fa de 88 3c 16 35 bf 3c
       0.028188018 -0.03209472 0.016707886 0.023340743
000300 7d 4f c0 bb 51 e6 16 3b 46 c8 07 3d c0 46 17 3a
       -0.0058688507 0.0023025463 0.03314998 0.00057707354
000310 34 18 da 3b 4f 8c c3 bc 2a 29 b7 bc 9c b6 f8 bc
       0.0066557173 -0.023870615 -0.022358496 -0.030360512
000320 c2 42 b7 3b ec 4f 39 3c 95 bd 42 bd c1 4b 00 bd
       0.005592675 0.011310559 -0.04754408 -0.031322245
000330 c7 e8 00 bc 59 ac cc 3b c1 e7 dd bc 56 97 4f bd
       -0.007867998 0.0062461314 -0.027088048 -0.050681435
000340 0a 42 f3 3c 17 c4 0b 3c 67 44 0a bd 97 e7 a6 bc
       0.029694576 0.008530638 -0.03375664 -0.020374103
000350 70 62 b0 3c da 75 72 bb 18 5c 28 bb de f6 d1 bc
       0.021531314 -0.0036996515 -0.0025689658 -0.02563041
000360 7c 45 bd 3a b0 b2 37 3d 0e c3 31 3a d7 55 a4 bc
       0.0014440264 0.044848144 0.00067810796 -0.020060463
000370 89 cb b9 3a c3 d8 96 bc 6e 5e 23 3b 60 f3 0a 3b
       0.0014175038 -0.018413907 0.002492811 0.0021202192
000380 c2 38 fb 3c de 3d 1c 3b 12 63 57 bc e0 d2 19 3c
       0.030666713 0.0023840587 -0.013146179 0.009388655
000390 34 73 8b bc eb d3 ef 3b 5b 51 95 3c 6e 6f 30 bc
       -0.017022707 0.0073189638 0.01822727 -0.010768754
0003a0 53 ad a0 bc c2 38 25 ba f2 0c 6d 3d 08 02 51 bd
       -0.019613897 -0.0006302708 0.057873674 -0.051027328
0003b0 c8 f1 6c 3b 74 d5 4c 3d b8 38 93 3d b4 d5 94 3b
       0.0036154855 0.050008252 0.071885526 0.004542077
0003c0 38 ed 18 3c 26 97 f1 3c 62 b1 c5 3b b4 72 97 bb
       0.009333901 0.029491019 0.0060331086 -0.004621828
0003d0 22 55 d4 3b 84 84 74 3d 4c 78 f2 bb d3 24 11 bd
       0.006479875 0.05969669 -0.0073995944 -0.03543551
0003e0 1e 06 40 bd 8c 83 63 3c 85 40 33 bb 22 36 85 bc
       -0.046880834 0.013886344 -0.002735169 -0.016261164
0003f0 d9 0d 92 3a 33 1a 13 bd cc fc 2b bd 4c 8b 26 bd
       0.0011143043 -0.035913657 -0.041989133 -0.040660188

encoder.6.bias f4 [128]
000000 10 04 25 bd 90 9e a8 3b 6e e2 50 3c d3 c7 46 bc
       -0.040287077 0.0051458552 0.012749298 -0.012132603
000010 89 2f b4 bc f9 02 e5 bc f5 16 eb 3c 98 4a 15 3e
       -0.021995323 -0.027955519 0.02869747 0.14579237
000020 cc e0 d9 38 3e 78 dc bb 88 28 a0 bb 9a 5c 16 bd
       0.00010389238 -0.006728201 -0.004887644 -0.036709405
000030 ea 8b 56 bc e8 7a 3b 3b 1c 6d 20 bd 8c 58 45 bc
       -0.013094882 0.0028607193 -0.039166555 -0.012045037
000040 20 2f ca bc bc ff 8c 3a e4 db 90 3c ce c6 85 bc
       -0.024680674 0.0010757367 0.017682977 -0.016330149
000050 d6 f4 11 bc 20 07 07 37 74 20 03 bd 6a d9 ab bc
       -0.008908471 8.048286e-06 -0.03201337 -0.020977695
000060 59 eb 14 bd 13 53 44 be f5 6b e5 b9 f8 e4 a4 3c
       -0.036357258 -0.19172315 -0.00043758718 0.020128712
000070 75 e8 d9 bd 7b e1 42 bb a4 ab e6 3a a3 20 74 3e
       -0.10640041 -0.0029736448 0.001759876 0.23840575
000080 e8 63 78 bc a6 fd af bb a7 ad 46 3d 51 18 41 bc
       -0.015160538 -0.0053708134 0.04850545 -0.011785583
000090 06 fa 73 3c 0e d4 87 3c c2 7e a3 bc 72 ab a8 bc
       0.014891153 0.016580608 -0.019957904 -0.020589564
0000a0 74 32 1f 3d 8c e0 6e 3c c4 50 0a bd 24 b5 df 3a
       0.038866475 0.014579903 -0.03376843 0.0017067534
0000b0 00 51 64 bd 92 f3 73 be 04 9b 3d bc 96 57 7a bc
       -0.05574131 -0.23823383 -0.011572603 -0.015279671
0000c0 56 1d 84 3c a6 79 bf 3b 0d 27 8b 3c 54 22 33 bd
       0.01612727 0.005843359 0.016986394 -0.04373391
0000d0 6e e0 22 bd f3 57 f9 bb 86 3f 5a 3c 07 ae 80 3c
       -0.039764814 -0.0076093613 0.013320809 0.015707983
0000e0 76 b5 72 bc f0 16 37 38 f8 8d b3 3c 5a ec 95 3c
       -0.0148137715 4.3651962e-05 0.021918282 0.018301178
0000f0 e3 a2 2d 3c 18 f3 58 3b 80 99 67 ba 0f 9e 3c 3c
       0.010597917 0.003310388 -0.0008834824 0.0115122935
000100 51 4e c0 bb 4d 39 8e 3d 3f 37 87 bd 34 ba bf bc
       -0.005868711 0.06944523 -0.06602334 -0.023404218
000110 69 64 c9 bb 00 74 9e 3b a4 97 99 3e 5b 6f 97 3c
       -0.006146003 0.0048356056 0.29998505 0.018485716
000120 52 a6 d6 bb ea 16 23 3c da a8 d0 bc ff 70 9b bc
       -0.0065505886 0.009954194 -0.02547114 -0.01897478
000130 b7 b0 a2 bc 46 73 8d 3c 65 20 09 bb 24 f2 f3 bd
       -0.019859655 0.01726688 -0.002092385 -0.11911419
000140 d5 22 50 3e 03 31 e7 39 d7 69 82 bc 02 0a a1 bc
       0.20325787 0.0004409627 -0.015919609 -0.019658092
000150 e0 b7 3a 3d 90 0d 34 bb 6c 17 fe 39 7e db 64 bd
       0.045585513 -0.0027473904 0.00048464106 -0.055873387
000160 18 ca d5 3b 0b b8 ba bc fc 07 ff bb c3 83 98 bb
       0.0065243356 -0.022792837 -0.0077829342 -0.004654379
000170 77 28 6c be f6 ac 98 3b 7e e6 16 3c ec b5 fe bc
       -0.23062311 0.0046592904 0.009210227 -0.031092606
000180 12 8a c5 3b fa 18 02 39 ba 74 8f b9 43 eb 7f bc
       0.006028422 0.0001240707 -0.00027362054 -0.015620056
000190 b9 32 14 bc e0 d3 c0 b9 dd 67 0b 3c f0 67 e3 3a
       -0.009045296 -0.00036778953 0.00850865 0.0017349701
0001a0 25 1e 7c bc a4 6d ef ba 40 20 4b 39 97 31 9e 38
       -0.015388046 -0.0018266928 0.00019371603 7.543264e-05
0001b0 84 1b cd 3c e8 78 8a bc 4c 6f 2b 3d c0 05 42 3b
       0.025037535 -0.016903356 0.041854188 0.0029605478
0001c0 ab c3 85 3c 20 7d 2a bd 47 65 2f bc 08 c3 2e ba
       0.016328653 -0.041623235 -0.010705299 -0.0006666635
0001d0 aa dc 68 3d 7c a0 ab bc 00 a4 08 3a 00 41 60 bd
       0.056851067 -0.020950548 0.0005212426 -0.05474949
0001e0 74 60 6e 3e 46 64 02 bd 22 a5 ae bc 21 ae 00 3d
       0.23278981 -0.03183391 -0.021318976 0.031416062
0001f0 7f f1 35 3d e3 8a 77 3a 47 a6 8e bc 6c d5 b0 bb
       0.04441976 0.0009442998 -0.017413272 -0.0053965356

fc_mu.weight f4 [16, 512]
000000 ce 52 06 ba 2c 82 bc 3c a1 39 e3 3d 10 ea e9 3c
       -0.0005124033 0.02301129 0.11094976 0.028553993
000010 a8 ec 18 bc 4d 1c a2 bd 0b 3e bf 3c 79 ed a6 3d
       -0.009333767 -0.07915554 0.023345014 0.08150763
000020 35 ec 88 bd b6 e1 69 bd 02 e4 84 3c 00 0e bc 3d
       -0.06685678 -0.05710002 0.016222004 0.09182358
000030 d0 cf 7c 3d 6f 44 49 bc d8 64 af ba a9 a2 44 3c
       0.061721623 -0.012284382 -0.0013381494 0.012001672
000040 4d e9 be bc 48 6b 65 3d b2 c9 6d bd 65 27 8a 3c
       -0.023304606 0.056010514 -0.05805368 0.016864488
000050 92 6c 87 3d f4 58 e2 bc 88 6a 90 bd cc d0 2d bc
       0.06612505 -0.027630307 -0.07051569 -0.010608863
000060 de dd bf 3d c1 ad c0 3d e3 eb 54 bd 12 53 16 bd
       0.0936849 0.09408141 -0.05198277 -0.036700316
000070 ba d5 30 bd 10 1b 3f 3c c0 1d 80 bd ef 18 57 bc
       -0.043172576 0.011664167 -0.06255674 -0.013128503
000080 4c b4 1c ba b9 51 30 39 c1 b0 ca b9 c4 41 da ba
       -0.0005977794 0.00016815112 -0.00038660134 -0.001665168
000090 2a 8b 22 3b 8c 1d 96 bb e0 cf 92 bb dc 0a 06 3b
       0.0024802187 -0.004581159 -0.004480347 0.002045325
0000a0 97 c5 34 bd 9d 30 4f 3d 06 2f a3 bc 9b 19 24 3d
       -0.04413375 0.05058347 -0.019919883 0.04006348
0000b0 44 f4 5d 3d 8b 71 d8 3c a6 cb 14 3e 97 0b 3f bd
       0.054188028 0.026421329 0.1453081 -0.046641912
0000c0 fe 78 e9 bc bc d5 73 bd 88 f3 76 3d 6f 8a 3b 3d
       -0.028500076 -0.059530005 0.060290843 0.045786317
0000d0 75 61 fa 3c d9 ad 3a bd 2b fd fa 3c 24 13 4c bd
       0.03056405 -0.04557595 0.030638298 -0.04982294
0000e0 de c6 44 3c 98 6e 8e 3d 1f 11 c2 bc 89 5d 87 bd
       0.012010304 0.06954688 -0.023689805 -0.06609637
0000f0 e4 27 cf 3a 88 29 69 bd 3e 06 b9 bb cd c0 c8 3c
       0.0015804735 -0.056924373 -0.005646496 0.024505997
000100 ec b7 43 bb 5c 50 09 bd a9 60 9d bd 60 f1 f6 3a
       -0.0029864265 -0.033523902 -0.07684452 0.0018840246
000110 5c 3b bb 3b e0 45 7a 3c 4c 61 4c bb fe 36 9a bc
       0.0057138633 0.015275449 -0.0031185923 -0.01882505
000120 08 96 24 bd 3b 15 d0 bb 54 18 4c 3c a0 c2 41 3d
       -0.040182143 -0.006350187 0.012456972 0.04730475
000130 99 78 26 3d 2a ca 97 bd 41 2d fd 3c f1 62 33 3d
       0.040642355 -0.074116066 0.030905368 0.04379553
000140 7b 73 86 3d 62 00 19 3d e9 15 2b 3b f3 b7 8c bb
       0.06564995 0.03735388 0.0026105589 -0.0042943894
000150 c4 18 df 3a b2 31 65 ba 4d 4f 4f 3a cb 28 fe 39
       0.001702093 -0.0008743062 0.000790824 0.00048477048
000160 b5 ae a2 3d 7e f0 d1 3b 22 c7 b1 bd 56 54 4f 3d
       0.07943479 0.0064068427 -0.0868056 0.05061754
000170 38 b1 81 bb c5 05 11 3d 74 83 00 3d fe 40 6b bd
       -0.0039578937 0.035405893 0.031375363 -0.05743503
000180 76 73 00 bc 28 00 ea 3a 03 07 16 bd ce 8d 7e 3d
       -0.007840028 0.001785283 -0.03662778 0.062146954
000190 e0 ed ac b9 04 6a f9 bb 65 94 37 3b f6 fd 2a bd
       -0.00032983627 -0.007611515 0.0028012034 -0.041746102
0001a0 de 37 07 3b ae 28 39 bb 1e f4 49 bb 9a 1a 23 3b
       0.0020632665 -0.0028253007 -0.0030815671 0.0024887682
0001b0 58 83 30 3d cf b9 d0 bb ea 0d 96 bd dd a5 ca 3b
       0.04309401 -0.0063698064 -0.07326873 0.006184323
0001c0 e2 7a 2e 3e 29 ce b3 3d 8a c5 8c bd 88 bc 37 bd
       0.17039064 0.08779556 -0.06873615 -0.04485753
0001d0 dc 84 bc bd 40 7c 74 3c 16 d3 8c 3d 48 7b 14 3b
       -0.092050284 0.014922202 0.06876199 0.002265649
0001e0 57 c7 e0 bc 70 e0 79 bd 2e ec 8b 3c 80 c9 86 bc
       -0.027438803 -0.061005056 0.017080393 -0.016453505
0001f0 72 7a 23 bd 74 c6 7f bc 78 b9 11 3d 00 15 2d b8
       -0.039911695 -0.01561128 0.035577267 -4.1265972e-05
000200 3c 54 8d bc d3 97 03 3d 40 ea 6a ba f6 f8 ec bc
       -0.01725208 0.032127213 -0.00089612976 -0.028927308
000210 fd 10 d7 bc ad ae 2d bd 33 8a 02 3d 14 5b fe 3c
       -0.026253218 -0.042402912 0.03187008 0.031049289
000220 f0 c0 91 bd 54 7e 54 bc fb ca 84 bd fc 03 eb bc
       -0.07116878 -0.012969572 -0.06484028 -0.028688423
000230 5a d8 16 bb c4 65 4a 3d d4 5a a1 bc dc 96 33 bd
       -0.002301714 0.049413458 -0.01969663 -0.043845043
000240 04 e9 92 3d 0a dc db bb 20 9e ce bd f3 ff a8 bd
       0.071733505 -0.0067095803 -0.10088754 -0.082519434
000250 4e b5 38 bd a8 d3 06 3b 9f d2 03 3d a2 f0 d0 3b
       -0.04509478 0.0020572934 0.032183286 0.006376342
000260 ec c2 47 3d 72 07 11 3d fd b1 78 bd 7d 85 0f 3d
       0.048769876 0.03540749 -0.060716618 0.035039414
000270 e7 31 fc bc b8 f6 e2 bb da df 12 3d 26 a9 33 bc
       -0.030785514 -0.006926384 0.035858013 -0.010965621
000280 b7 5e 00 3c 6e f3 af bd f0 8e 2b bd 9a c1 72 3d
       0.007835082 -0.085913524 -0.041884363 0.059266664
000290 8a 34 5e 3b 29 b7 19 bd a7 42 46 bd 14 03 33 bd
       0.0033905827 -0.03752819 -0.04840341 -0.043704107
0002a0 66 48 bb 3d 58 23 89 bb 8b 73 bc bc 6e f1 9e bd
       0.09144668 -0.0041851215 -0.023004314 -0.07760893
0002b0 46 a5 ae 3d 30 7f ff 3c a0 2e 15 bd d6 a1 17 bd
       0.08527617 0.031188577 -0.03642142 -0.037019573
0002c0 c0 9c 7b 39 aa f0 43 bd b4 07 e1 bc 84 46 37 3d
       0.00023995619 -0.047836937 -0.027469493 0.044744983
0002d0 66 89 94 3c a6 12 40 3d 2c 01 88 bd d2 a8 fe 3c
       0.018131923 0.046892785 -0.066408485 0.03108636
0002e0 10 29 f2 3c a0 21 55 3d a1 34 ec 3c 8e f0 ee bd
       0.029560596 0.05203402 0.02883369 -0.11666976
0002f0 79 b4 b1 3c 30 40 42 3a 91 19 97 bd 78 33 a1 3c
       0.021692501 0.00074100774 -0.07377923 0.019677863
000300 5e d8 9e bc 78 bb 97 3a d6 6b b3 3b 83 38 33 bc
       -0.019390281 0.0011576256 0.0054755015 -0.010938766
000310 0c 79 5f bd 9e be 3c ba 22 eb fd 3c e9 cd b4 3c
       -0.0545588 -0.0007200035 0.03099591 0.022070842
000320 d8 01 4b 3d 0a a2 11 bc c8 ba 99 bd d4 75 4e 3d
       0.049562305 -0.008888731 -0.07506329 0.05040534
000330 b4 59 c5 3d 65 6e 7b 3d 94 f2 15 be a6 25 68 3d
       0.0963625 0.061384577 -0.14643317 0.05667653
000340 97 3f ba 3d c2 86 21 3d dd 39 ab bd 80 d1 b3 bd
       0.0909416 0.039435156 -0.08360646 -0.08780193
000350 12 f6 c7 bc 08 f8 89 bd 63 fc 62 3d 82 51 4e 3d
       -0.024409328 -0.06736761 0.055416476 0.0503707
000360 d4 a4 e0 bc b0 a4 2c 3c 56 44 f1 bb e0 cc a3 bd
       -0.027422346 0.010537311 -0.0073628826 -0.07998061
000370 c0 a1 4a bd b2 b7 0e 3c c8 5b 94 ba 6e b8 db bc
       -0.049470663 0.008710789 -0.0011318857 -0.026821341
000380 ea d0 a2 3c 7a 2f 5a bc 52 6e 67 3d f3 18 0d 3c
       0.019875009 -0.013316983 0.056501694 0.008611905
000390 b1 87 1b ba 5f 54 dd 38 56 52 a1 39 22 67 05 bb
       -0.00059330004 0.000105538165 0.00030769658 -0.0020355661
0003a0 b6 b0 74 3d f2 b1 b8 bc c5 3f 27 3c 49 a5 7e bd
       0.059738837 -0.022545788 0.010208075 -0.062169347
0003b0 22 5e 3d 3d 9a 65 fe bd 52 0e a1 3c 88 bf 55 3d
       0.04623235 -0.12421723 0.019660149 0.05218461
0003c0 b9 3e fd bc ab 22 e0 bc 2d ef 06 3d dd c3 d9 3c
       -0.030913698 -0.027360281 0.03294294 0.026582653
0003d0 20 6c 80 b9 26 e2 c4 3c 7b 0d 94 3c 57 48 bb bc
       -0.00024494622 0.024033617 0.018072834 -0.022861643
0003e0 fc 2b b6 bc ad e6 2d bc d4 b0 15 bd 3d 23 3b bd
       -0.02223777 -0.010614079 -0.03654559 -0.045687903
0003f0 f0 b4 52 bc b4 b6 d1 bc a8 c8 b7 bb b0 32 81 3d
       -0.012860522 -0.025599815 -0.005608637 0.06308496

fc_mu.bias f4 [16]
000000 24 2e 6c bb 86 d2 d8 3c 29 51 2a bd fe 25 3e bc
       -0.0036038244 0.026467573 -0.041581307 -0.011605738
000010 4c ab d5 bb ef 3f ed 3c 24 4c 42 3b 44 3c 95 bb
       -0.0065206643 0.02896115 0.0029647434 -0.0045543034
000020 e0 97 b6 3c 7c c5 d3 bb e2 ef 2f 3d 58 5f 80 3b
       0.022289217 -0.006462751 0.04295338 0.003917616
000030 90 73 de bb c0 11 f1 b9 0b 2a 91 bd 20 0a 7d 3c
       -0.0067886785 -0.00045980327 -0.07088097 0.0154443085
