data/vae.pth (torch, 706924 bytes, 21 tensors)

encoder.0.weight f4 [16, 1, 4, 4]
-0.00012847247 -5.954333e-05 -0.00029135548 6.913555e-05 0.00020587405 -0.0001976428 -0.00024171192 -0.00019737292
0.00033836436 -6.942097e-05 -1.5266647e-05 8.459152e-05 -0.00015639371 -9.55037e-05 -6.324719e-05 0.00015058207
-0.50391924 0.04191779 -0.11145868 0.5654407 0.09656205 -0.019650983 0.008769788 -0.0380167
-0.01332905 0.032868348 0.03538003 0.028058557 0.38649952 -0.025372867 0.08158695 -0.4985047
-6.7340574e-05 0.00017193131 0.00029306096 -4.381967e-05 -1.050904e-05 -0.00011998156 0.00015316253 -3.4862467e-05
0.00024477445 -0.00023287463 -7.172937e-05 -0.00013587809 0.00023573733 -0.00017544176 -0.000112846814 -0.00021883626
-8.9651156e-05 0.00019311626 0.00022997135 -0.00024283894 3.037488e-05 0.00028514944 6.403463e-05 -0.00026707957
-0.00032449723 -0.00012917104 0.00023508414 -6.3839194e-05 -0.0004752256 -6.39797e-05 0.00021213337 0.00027771582
-0.7173653 -0.032545045 0.10635358 -0.6039925 0.07430234 0.013676356 -0.031035103 0.10628141
0.06866351 0.009642033 -0.060722698 0.018767802 0.41171175 0.0435514 -0.062131047 0.2850074
-0.0002194732 2.8160859e-05 0.0002035679 6.8044355e-06 0.00015550309 0.00015162422 -0.00012874312 -0.00026842637
0.00032309405 0.00023026783 0.00012934337 3.4130062e-06 -2.7945076e-05 0.00026992717 0.00025578614 0.00027498452
0.00014220392 9.064258e-05 -1.2032891e-05 -0.00014959014 -0.00024469526 -1.29586915e-05 1.8033916e-05 -9.158415e-05
-0.00015433642 -0.00010089509 -5.7156078e-05 -0.00014784312 0.00010074525 3.6514328e-05 1.4452521e-05 -5.265596e-05
-0.000121816964 1.1248303e-05 1.3214067e-06 -2.633612e-05 0.00021717655 0.00012292608 -6.0723698e-05 -6.635269e-05
0.00011032516 7.8864185e-05 -6.943892e-05 -5.854173e-05 -0.00011521047 2.9550163e-05 6.7258945e-05 0.00022221913
-3.346288e-05 0.00012798715 -0.00023207755 1.941612e-05 -0.000101818005 -7.094546e-06 -0.00013681706 5.640289e-05
-7.289475e-05 0.0003738407 0.00012470965 3.3422504e-05 -0.00011016626 0.00030795365 7.960049e-05 -1.3181214e-05
-6.1556806e-05 8.292395e-05 -0.00028138145 0.00018025865 0.000112323345 -4.6864352e-05 -0.00024360776 0.00016689734
-0.000103728766 0.00019585603 -0.00021844315 -0.00021050777 -6.886775e-05 4.8434853e-05 -0.0001447498 -6.8314894e-06
6.9451096e-05 5.5631128e-05 0.00013352832 3.6293655e-05 0.00022587828 5.3994445e-05 6.716607e-05 0.00021387349
0.00020667892 -4.5350364e-05 0.00012004979 0.00013027855 0.00040115908 0.00015794337 -7.2962466e-05 -0.00017145622
1.4777599e-05 0.00016103905 -2.2223117e-05 -0.00014127158 -0.00017769382 0.00015620874 6.450263e-05 -4.291073e-05
2.3181728e-05 0.00015450743 -0.00019830947 0.00015786235 -0.00027801408 1.784623e-05 0.00018602992 -0.00027377694
0.27300593 0.019707032 0.010446953 0.17926651 -0.11659351 -0.08745718 -0.091297925 -0.09557309
-0.003233592 0.019349406 -0.01045321 0.056602497 0.6141004 -0.01835207 0.0027343414 0.42512333
0.00010135371 -0.00027811795 0.00037465323 0.00023269444 -2.5952235e-05 -0.0002286624 -9.075549e-05 -3.822138e-05
0.00022000136 -0.00036694127 0.00010832267 -7.5935866e-05 0.00036517365 7.573848e-05 0.00039499265 -3.1371426e-05
0.4106305 -0.08118898 -0.11056451 -0.47424245 -0.08339263 0.012807803 0.021986723 0.029781446
-0.05030305 0.03949486 0.052220803 0.01826915 0.22373942 -0.10740041 -0.04229451 -0.40343806
0.00018019052 -0.00014620728 -0.00016078987 -5.908722e-05 -0.00019117963 -0.00011711211 -1.3084864e-05 -0.00017504282
-5.505594e-05 -2.0941909e-05 -4.0300358e-05 -0.00012587986 -0.00029222877 -7.779861e-06 -9.5872674e-05 -5.5031305e-06
00000000: 91b6 06b9 2abe 79b8 12c1 98b9 defc 9038
00000010: e5df 5739 563e 4fb9 0d74 7db9 e4f5 4eb9
00000020: 7f66 b139 1996 91b8 e010 80b7 ba66 b138
00000030: 9efd 23b9 2949 c8b8 94a3 84b8 91e5 1d39
00000040: da00 01bf fdb1 2b3d 7344 e4bd b9c0 103f
00000050: 53c2 c53d 19fb a0bc 28af 0f3c 66b7 1bbd
00000060: 1662 5abc f6a0 063d a6ea 103d 0fdb e53c
00000070: 44e3 c53e c2da cfbc 0f17 a73d 023c ffbe
00000080: 3239 8db8 7648 3439 faa5 9939 03cb 37b8
00000090: fc4f 30b7 9c9e fbb8 419a 2039 4a39 12b8
000000a0: 1255 8039 cf2f 74b9 6a6d 96b8 7f7a 0eb9
000000b0: 4230 7739 caf6 37b9 2ca8 ecb8 6977 65b9
000000c0: 1903 bcb8 407f 4a39 7724 7139 95a2 7eb9
000000d0: 8fcd fe37 1c80 9539 554a 8638 d006 8cb9
000000e0: 4821 aab9 1672 07b9 eb80 7639 68e1 85b8
000000f0: b327 f9b9 d72c 86b8 1e70 5e39 639a 9139
00000100: 41a5 37bf f44d 05bd e8cf d93d 419f 1abf
00000110: d32b 983d cb12 603c 543d febc 11aa d93d
00000120: 749f 8c3d 9ef9 1d3c 5db8 78bd efbe 993c
00000130: e2cb d23e f462 323d 207d 7ebd 7dec 913e
00000140: 6322 66b9 fc3a ec37 d874 5539 a851 e436
00000150: 8b0e 2339 51fd 1e39 38ff 06b9 94bb 8cb9
00000160: f364 a939 0d74 7139 59a0 0739 000b 6536
00000170: 986b eab7 0385 8d39 091b 8639 cc2b 9039
00000180: 931c 1539 5d17 be38 e0e0 49b7 4cdb 1cb9
00000190: 714a 80b9 2869 59b7 8a47 9737 de10 c0b8
000001a0: 5ed5 21b9 a497 d3b8 dfba 6fb8 5606 1bb9
000001b0: 3247 d338 f626 1938 1b79 7237 e8da 5cb8
000001c0: fc77 ffb8 18b7 3c37 305b b135 63ec dcb7
000001d0: e3b9 6339 b8e5 0039 93b1 7eb8 d426 8bb8
000001e0: 5f5e e738 e363 a538 bc9f 91b8 b48a 75b8
000001f0: 269d f1b8 7ee2 f737 5f0d 8d38 7e03 6939
00000200: 7e5a 0cb8 4a34 0639 d859 73b9 cddf a237
00000210: 2087 d5b8 b00d eeb6 8d76 0fb9 2492 6c38
00000220: 12df 98b8 0d00 c439 7ec4 0239 242f 0c38
00000230: 0f09 e7b8 d774 a139 30ef a638 e224 5db7
00000240: 0f18 81b8 75e7 ad38 6186 93b9 d003 3d39
00000250: 238f eb38 3790 44b8 f670 7fb9 2a01 2f39
00000260: f588 d9b8 b45e 4d39 e30d 65b9 c0bb 5cb9
00000270: 176d 90b8 8726 4b38 fbc7 17b9 0c3a e5b6
00000280: 46a6 9138 7855 6938 bc03 0c39 043a 1838
00000290: bdd9 6c39 1878 6238 82db 8c38 3a43 6039
000002a0: f3b7 5839 9536 3eb8 3ec3 fb38 629b 0839
000002b0: a952 d239 9a9d 2539 6d03 99b8 eec8 33b9
000002c0: 4eed 7737 97dc 2839 c86b bab7 4d22 14b9
000002d0: 5253 3ab9 f7cb 2339 9645 8738 0cfb 33b8
000002e0: 6276 c237 4603 2239 4bf1 4fb9 da87 2539
000002f0: 6bc2 91b9 7db4 9537 0711 4339 b889 8fb9
00000300: 6fc7 8b3e a470 a13c b229 2b3c a491 373e
00000310: 94c8 eebd c01c b3bd 68fa babd d3bb c3bd
00000320: acea 53bb a582 9e3c f143 2bbc 05d8 673d
00000330: af35 1d3f 1557 96bc a332 333b c4a9 d93e
00000340: dc8d d438 5cd0 91b9 1b6d c439 70ff 7339
00000350: 00b4 d9b7 18c5 6fb9 fc53 beb8 e54f 20b8
00000360: 2ab0 6639 0662 c0b9 4a2b e338 c23f 9fb8
00000370: c774 bf39 c9d5 9e38 0417 cf39 d094 03b8
00000380: 293e d23e 6846 a6bd a56f e2bd e8cf f2be
00000390: c1c9 aabd d2d7 513c 801d b43c 38f8 f33c
000003a0: 920a 4ebd 5dc5 213d 7be5 553d 2fa9 953c
000003b0: f21b 653e bff4 dbbd 023d 2dbd 6f8f cebe
000003c0: 86f1 3c39 384f 19b9 b499 28b9 6bd4 77b8
000003d0: 6477 48b9 169a f5b8 1087 5bb7 b38b 37b9
000003e0: deeb 66b8 68ac afb7 2e08 29b8 9efe 03b9
000003f0: 4836 99b9 4086 02b7 400f c9b8 88a7 b8b6

encoder.0.bias f4 [16]
3.7651907e-06 0.07514016 -8.448878e-05 7.549961e-05 -0.16148853 8.577724e-05 -0.00017972544 0.00012865677
-0.00012127798 0.00012938058 7.054427e-05 -1.806756e-06 0.30991793 0.00015264598 -0.53309923 -1.5916008e-05
00000000: 7cad 7c36 16e3 993d 922f b1b8 8b55 9e38
00000010: 405d 25be 4ee3 b338 ae74 3cb9 0ae8 0639
00000020: 9f56 feb8 56aa 0739 2bf1 9338 aa7f f2b5
00000030: 90ad 9e3e 980f 2039 3179 08bf 5e83 85b7

encoder.2.weight f4 [32, 16, 4, 4]
-0.00033657218 0.00064521213 0.000774333 0.0007385231 -0.00019460873 0.000673822 0.0007439741 0.0007094041
-0.00016496965 0.00070687756 0.00079700426 0.00069797784 -0.000121332145 0.00073123694 0.00084007275 0.00072029757
0.0015097967 0.00022396735 0.0015699504 -0.00074657175 -0.0016996559 -9.659698e-05 0.0014052277 0.000437175
0.00062677806 -0.0018146578 -0.001111056 0.0011067492 -0.0012748282 -0.001530238 -0.0030924103 0.00546565
0.00076162897 0.00018126852 0.000336783 0.00028646493 0.00070587435 0.00021985709 0.00040797604 0.00025451102
0.0005608485 0.00016274716 0.0003712424 0.00022178024 0.000384632 0.000113006965 0.00029854756 0.00019968722
-0.0006483284 -0.00029401327 -0.0002222878 -0.00035585795 -0.00041782367 -0.00021908375 -0.0001432749 -0.00028134242
-0.00032278773 -0.00012181012 -5.454477e-05 -0.0002915654 -0.000328602 -0.00011865972 -1.4966514e-05 -0.00027870652
0.0016299895 0.0014983205 -0.000735342 -0.00024327614 7.105667e-05 0.0005268497 -0.0019101165 0.00065059634
-0.0003716838 0.0011576978 0.0015077732 -0.00092210283 0.0010870041 0.0013015463 0.00013662867 -0.00073783944
-0.00027409804 0.0002754878 0.0006318203 0.00044915342 -0.00022376215 0.00032369982 0.0006378137 0.0004505492
-0.00016656664 0.00022885343 0.00061083864 0.00043271313 -0.00014005837 0.0001865595 0.00055148266 0.00037632382
0.0008907999 0.0005971658 0.00044969312 0.0007123865 0.0008314564 0.00057524483 0.0004021179 0.00069090666
0.0007823377 0.0005228997 0.0004140081 0.00066904316 0.0006661116 0.00050071673 0.00037808393 0.00066466676
-0.000820598 -0.00036423426 -0.00024319833 -0.000251361 -0.0007571683 -0.00030441093 -0.00020731095 -0.00028919283
-0.00074542745 -0.00024974445 -0.00020033545 -0.0003235499 -0.0006658393 -0.00022394497 -0.00017623091 -0.00031303696
0.000268864 0.00086162303 9.5759686e-05 0.00047104637 6.786837e-05 0.000867137 -5.464113e-06 0.0004892869
-3.9542207e-05 0.00081204524 -3.9031955e-05 0.0004812534 -4.719491e-05 0.0008134762 -0.00012118424 0.00044507429
0.00012261604 0.0004911163 -0.00053223985 -8.045956e-05 -6.776579e-05 0.0006716894 -0.00044568768 -3.0092328e-05
-8.537459e-05 0.00070046156 -0.00033878838 3.886233e-05 -0.0001537569 0.0006515495 -0.00033090153 0.00013317868
0.00012769437 0.0004019888 7.3339907e-06 -0.00056820235 6.195014e-05 0.00041645629 0.00014008855 -0.00055383146
4.319604e-05 0.00043866082 0.00021655376 -0.00044448828 -2.5309018e-06 0.00033334823 0.00023799525 -0.00035244765
-7.380631e-05 -0.00017552923 -9.446099e-05 -8.529975e-05 -0.00014054005 -5.5259952e-05 -6.7778994e-05 -8.940308e-05
-0.00023527457 -4.5082328e-05 -0.00013411712 -0.00010491477 -0.0003671771 1.935428e-05 -0.00021613987 -0.000120313896
0.00035683927 -0.0020620432 5.314051e-05 -0.00020357472 0.0015011819 -0.0005124701 -0.0010481277 -0.0012110539
0.00029078458 0.0009516406 0.001335185 -0.0008209589 0.00055198255 -0.00074618676 0.00023037102 -0.00088675896
-0.0001788255 -1.7511527e-05 4.238363e-05 -0.00018856273 -0.00021785423 9.55359e-05 0.00019656793 -0.00015014781
-0.00015229188 0.000121388046 0.00028174577 -9.811898e-05 -0.00027084124 8.227861e-05 0.00031364014 -8.787427e-05
0.00018723642 0.002265072 -0.0008206739 -0.0011743587 0.0012230661 0.0010862788 -0.0008697328 -0.00065365277
-0.00090878 0.0007604459 0.00033557776 0.0012415263 -0.00043072915 0.00022973298 -0.00041814268 0.0003849482
-8.438334e-05 -0.00012281015 -9.38985e-05 0.00056823506 -0.00013178728 -0.00018527836 -0.0001868579 0.0005278106
-8.275275e-05 -0.00017211045 -0.00017212113 0.0005257629 8.502131e-06 -0.000118183045 -9.046338e-05 0.0005336568
00000000: f475 b0b9 7423 293a 9cfc 4a3a 7299 413a
00000010: e20f 4cb9 6ea3 303a 4207 433a 4ef7 393a
00000020: b4fb 2cb9 c04d 393a 0dee 503a 80f8 363a
00000030: b373 feb8 7bb0 3f3a 5438 5c3a 5ad2 3c3a
00000040: 5fe4 c53a c7d8 6a39 cbc6 cd3a 95b5 43ba
00000050: fdc6 deba 1c94 cab8 9e2f b83a a334 e539
00000060: 5d4e 243a d0d9 edba daa0 91ba 5710 913a
00000070: 2318 a7ba 4492 c8ba 09aa 4abb 3219 b33b
00000080: 0ea8 473a e612 3e39 4092 b039 ac30 9639
00000090: 6d0a 393a 7089 6639 9ee5 d539 e46f 8539
000000a0: e805 133a 1ca7 2a39 50a3 c239 ae8d 6839
000000b0: 6fa8 c939 27fe ec38 6086 9c39 2163 5139
000000c0: 95f4 29ba cb25 9ab9 ed15 69b9 7292 bab9
000000d0: 580f dbb9 d9b9 65b9 103c 16b9 2481 93b9
000000e0: d63b a9b9 4f74 ffb8 00c7 64b8 3fdd 98b9
000000f0: 3748 acb9 f4d8 f8b8 b018 7bb7 5b1f 92b9
00000100: 5fa5 d53a 4b63 c43a f7c3 40ba f117 7fb9
00000110: 4204 9538 491c 0a3a e05c faba c88c 2a3a
00000120: 8ede c2b9 e4bd 973a 79a0 c53a 46b9 71ba
00000130: ce79 8e3a a698 aa3a fb43 0f39 916b 41ba
00000140: d1b4 8fb9 596f 9039 bea0 253a 5a7c eb39
00000150: b2a1 6ab9 41b6 a939 f432 273a b137 ec39
00000160: 64a8 2eb9 60f8 6f39 b020 203a c6dd e239
00000170: a2dc 12b9 2f9f 4339 6091 103a 544d c539
00000180: 9284 693a 1e8b 1c3a cac4 eb39 73bf 3a3a
00000190: 18f6 593a 07cc 163a 5ad3 d239 f61d 353a
000001a0: cb15 4d3a 3413 093a 3a0f d939 ba62 2f3a
000001b0: fe9d 2e3a 8842 033a 9139 c639 083d 2e3a
000001c0: 661d 57ba b2f6 beb9 0e03 7fb9 1ac9 83b9
000001d0: b47c 46ba 5899 9fb9 9c61 59b9 ce9e 97b9
000001e0: ca68 43ba 22f0 82b9 2311 52b9 22a2 a9b9
000001f0: b88b 2eba c5d2 6ab9 a0ca 38b9 1c1f a4b9
00000200: 51f6 8c39 8bde 613a 97d2 c838 c6f6 f639
00000210: 8e54 8e38 9450 633a 6058 b7b6 7d43 003a
00000220: 1fda 25b8 6fdf 543a 3eb6 23b8 bd50 fc39
00000230: 26f3 45b8 773f 553a 4b24 feb8 dc58 e939
00000240: 7e92 0039 42be 003a 0386 0bba 66bc a8b8
00000250: 7b1d 8eb8 5014 303a 30ab e9b9 c86e fcb7
00000260: 220b b3b8 2e9f 373a 689f b1b9 1c00 2338
00000270: ce39 21b9 bfcc 2a3a da7c adb9 e1a5 0b39
00000280: b2e5 0539 06c2 d239 8016 f636 6af3 14ba
00000290: 3aeb 8138 d157 da39 bce4 1239 002f 11ba
000002a0: 652d 3538 0ffc e539 b512 6339 350a e9b9
000002b0: 90d8 29b6 3ec5 ae39 5d8e 7939 b9c8 b8b9
000002c0: 76c8 9ab8 450e 38b9 5c19 c6b8 f4e2 b2b8
000002d0: ef5d 13b9 ecc6 67b8 9224 8eb8 ea7d bbb8
000002e0: 09b4 76b9 c816 3db8 caa1 0cb9 b005 dcb8
000002f0: ad81 c0b9 005b a237 9ba3 62b9 0851 fcb8
00000300: 2816 bb39 5823 07bb 30e3 5e38 ac76 55b9
00000310: 4ec3 c43a 4957 06ba 5461 89ba 3abc 9eba
00000320: 7274 9839 8577 793a 6001 af3a 9f35 57ba
00000330: ecb2 103a bf9b 43ba c08f 7139 6375 68ba
00000340: 1b83 3bb9 b8e5 92b7 14c5 3138 ecb8 45b9
00000350: cd6f 64b9 725a c838 cd1d 4e39 ff70 1db9
00000360: 8ab0 1fb9 b691 fe38 47b7 9339 3ac5 cdb8
00000370: b2ff 8db9 fe8c ac38 1170 a439 2449 b8b8
00000380: e554 4439 9a71 143b 7e22 57ba f0ec 99ba
00000390: 4a4f a03a 7861 8e3a c8fe 63ba e559 2bba
000003a0: 323b 6eba a958 473a 7cf0 af39 b6ba a23a
000003b0: 7dd3 e1b9 7ae4 7039 293a dbb9 dfd2 c939
000003c0: f6f6 b0b8 99c6 00b9 60eb c4b8 9cf5 143a
000003d0: 6130 0ab9 4847 42b9 49ef 43b9 c55c 0a3a
000003e0: 8b8b adb8 8c78 34b9 6a7b 34b9 5ad3 093a
000003f0: 60a4 0e37 0ad9 f7b8 28b7 bdb8 1ae5 0b3a

encoder.2.bias f4 [32]
-0.0004008781 -7.824159e-05 0.00010458911 0.024378404 -0.00034341784 -0.00032430713 -0.0005512122 -0.00016484904
0.00016126 -0.00036330722 -0.000120507946 -0.00033179123 -0.00020353642 0.005902923 2.8701528e-05 6.929951e-05
-0.00086719147 0.1265987 -5.9138347e-05 0.00013057709 0.08718623 -0.001278437 -0.00035115995 0.35962164
0.13375926 -0.0005988818 0.00035156345 -0.06838151 -0.0007761754 -0.0006676259 0.41493446 0.015304039
00000000: f32c d2b9 a215 a4b8 da56 db38 38b5 c73c
00000010: c30c b4b9 c407 aab9 397f 10ba 54db 2cb9
00000020: e717 2939 457a beb9 36b9 fcb8 44f4 adb9
00000030: 646c 55b9 4f6d c13b 10c4 f037 e454 9138
00000040: 3c54 63ba 17a3 013e 510b 78b8 85eb 0839
00000050: b28e b23d 3a91 a7ba e41b b8b9 5420 b83e
00000060: 30f8 083e 47fe 1cba 0c52 b839 9b0b 8cbd
00000070: 4078 4bba 9e03 2fba 4a72 d43e cbbd 7a3c

encoder.4.weight f4 [64, 32, 3, 3]
-0.00060282194 0.00055632443 0.0008435857 -0.0005367576 0.00058719085 0.00036052067 -0.00021229815 0.00067898235
0.0002860499 3.3826916e-05 0.00013534869 0.0004684635 -0.00044570368 0.00012909585 0.00052175386 -0.00015931536
0.0004025157 8.1813676e-05 0.0006503886 0.00028021415 -0.00027921825 0.00074943254 0.00035331858 0.00041756645
0.0006175136 0.0007346035 0.00045037825 -0.0015244652 -0.00029680633 -0.00012660194 -0.0018586625 0.0032226609
-0.0031120605 -0.001008104 0.0027150274 -0.0025089968 -0.0005886071 0.00011211878 0.00043864752 -0.00089852844
-0.00040853108 0.0002630012 -0.00041807344 -0.0005547746 0.00030009213 -4.6021632e-05 -3.7970563e-05 -0.0007899996
-0.0006183498 1.296689e-05 -0.0005542445 -0.0005532405 -5.8405953e-05 -0.0005422765 -0.00021143223 -0.00071552204
-0.00044813578 -0.00024391804 -0.00038517473 -0.00047738117 -0.00071118923 -0.00067260896 -0.00030740604 -0.00027156272
-0.00034744272 9.481258e-05 -0.0004213651 -0.0002814703 -0.00031648384 0.00044875508 0.00028826174 -0.00070663
2.8818085e-05 0.0002560827 -0.00042741085 -0.00025109173 0.00045570245 -2.7849439e-05 -0.00033987587 -1.01214755e-05
0.00022454184 -0.00064711605 -0.00024120498 -0.00020867251 -0.0005491024 -0.0007324206 -0.0004181979 -0.00048979407
-0.0010865148 -0.0001714569 -0.0006930814 -0.00021428528 -3.1947915e-05 -0.00074481714 -0.000400134 -0.00044535764
-0.0006354033 -0.0004868481 -0.00047157443 0.0002215485 -0.00025572578 -0.00046840843 -0.00018515809 0.00028264464
0.000105462466 0.00028575398 0.0005623547 -0.00012844203 9.5689196e-05 -0.00041093116 -0.0011695375 0.00036797626
-0.0007430097 -0.00070261717 6.7640765e-05 -0.0008659923 -0.00017385239 -0.003015096 -0.0006272164 -0.00026738626
-0.001432549 -0.004060416 -0.0033157528 0.00079692446 -0.0021373697 -0.0010050193 -0.00068035943 0.00046532604
0.00020657862 -0.0008446501 0.0005574974 0.00027471845 -0.00031148552 0.0005520839 0.00050748343 6.7146902e-06
-0.0005097927 -0.00058901566 3.86072e-05 -0.00022755447 -0.00055236754 8.959905e-07 -0.00037594693 -5.332131e-05
0.00010694032 0.00020436216 -6.0328122e-05 0.00017337044 -4.3074906e-06 -0.00014235041 0.00016546994 -0.0001732719
5.998856e-05 -0.00029640654 0.00092028006 -0.0011082288 -0.0019291177 0.0012329617 -0.0023137352 -0.0017110192
-9.8967736e-05 0.0005367821 -0.00041544024 -0.00027988583 -4.2973785e-05 -0.0005637016 -0.00079740235 -0.00010877964
-0.00046068156 -0.0010138111 1.3011093e-05 0.00045297755 0.0003315544 -0.00024619015 -7.18738e-05 -0.0001872876
-0.0005950568 -0.00028080057 -5.5469955e-05 -0.00036268207 0.00027704472 -0.0011143647 0.00023126439 0.0007346325
0.0021081478 -0.0003064337 -0.0010263608 0.00069682405 -0.0012391057 7.4239724e-05 -0.00066315633 -0.00042217548
0.000100930396 -0.0011735489 5.2865696e-05 -0.0001434137 -0.0010130733 5.35589e-05 0.00022016758 -0.0007112267
-0.00017394862 0.00016327554 -0.00064802077 -0.00021714487 5.409564e-05 -0.00039591442 -3.1406315e-05 -0.00056271127
0.0005335276 0.0007100777 7.851946e-05 -0.0014863163 0.00035103457 -0.0020883738 0.0018679067 0.00030936796
-0.0024294348 -0.0027148447 -0.0026872256 -0.0049111247 0.00051081117 -0.0002038251 -0.0052127824 -0.0030848924
-3.1865406e-05 1.928013e-05 -2.9985575e-05 -0.00022935565 -0.00018529472 -0.0004921336 -0.0006866701 -0.0002366518
-0.0005884462 -0.00062804454 0.00039235997 -0.00014942873 -0.0002408959 0.00044280203 2.253189e-05 -0.00023054692
0.00043098145 0.0003515422 -2.5090876e-05 -0.0001902593 0.0007183811 0.0010357664 -0.0021948328 -0.0022942265
-0.0011669294 -0.0011048145 -0.002325737 -0.0025717942 -0.000729327 0.00037875853 0.00095681805 -0.00082671235
00000000: b206 1eba 4dd6 113a 1424 5d3a 31b5 0cba
00000010: b6ed 193a 4404 bd39 5a9c 5eb9 bcfd 313a
00000020: f8f8 9539 60e1 0d38 63ec 0d39 1b9c f539
00000030: 56ad e9b9 e75d 0739 4fc6 083a e40d 27b9
00000040: be08 d339 6293 ab38 d77e 2a3a b5e9 9239
00000050: 0a64 92b9 9175 443a 9e3d b939 d2ec da39
00000060: a3e0 213a 6892 403a bf20 ec39 90d0 c7ba
00000070: ac9c 9bb9 73c0 04b9 5d9e f3ba 4733 533b
00000080: b6f3 4bbb 5b22 84ba 9aee 313b fb6d 24bb
00000090: c14c 1aba 5021 eb38 46fa e539 398b 6bba
000000a0: 1d30 d6b9 6ce3 8939 de30 dbb9 4b6e 11ba
000000b0: af55 9d39 5a07 41b8 9542 1fb8 fa17 4fba
000000c0: c118 22ba 5e8c 5937 b84a 11ba 5707 11ba
000000d0: eaf8 74b8 8f27 0eba e8b3 5db9 df91 3bba
000000e0: c4f3 eab9 40c4 7fb9 47f1 c9b9 0449 fab9
000000f0: 1a6f 3aba 0652 30ba 572b a1b9 8860 8eb9
00000100: f928 b6b9 1ed6 c638 abea dcb9 4e92 93b9
00000110: beed a5b9 e346 eb39 d621 9739 233d 39ba
00000120: 5ebe f137 d742 8639 1d16 e0b9 f6a4 83b9
00000130: 59eb ee39 379e e9b7 5e31 b2b9 68cf 29b7
00000140: fe72 6b39 39a3 29ba f8eb 7cb9 1acf 5ab9
00000150: a3f1 0fba eaff 3fba 9241 dbb9 8665 00ba
00000160: 6369 8eba 1cc9 33b9 e8af 35ba c4b1 60b9
00000170: d0ff 05b8 d53f 43ba 14c9 d1b9 e47e e9b9
00000180: 3291 26ba a53f ffb9 a63d f7b9 794f 6839
00000190: ef12 86b9 b794 f5b9 ff26 42b9 ec2f 9439
000001a0: bb2b dd38 40d1 9539 fc6a 133a 65ae 06b9
000001b0: bfac c838 3f72 d7b9 2b4b 99ba f0ec c039
000001c0: 89c6 42ba d72f 38ba 5cda 8d38 c203 63ba
000001d0: 254c 36b9 eb98 45bb c86b 24ba fa2f 8cb9
000001e0: 5ec4 bbba 3d0d 85bb 1a4d 59bb b2e8 503a
000001f0: 1d13 0cbb daba 83ba 265a 32ba 01f7 f339
00000200: 079d 5839 826b 5dba 0425 123a 1608 9039
00000210: e14e a3b9 b9b9 103a a308 053a c04e e136
00000220: 9ca3 05ba 2c68 1aba 2aee 2138 b09b 6eb9
00000230: c2cc 10ba 0084 7035 be1a c5b9 52a5 5fb8
00000240: 2645 e038 0d4a 5639 d408 7db8 c6ca 3539
00000250: 1089 90b6 e643 15b9 0082 2d39 52b0 35b9
00000260: 3a9c 7b38 0367 9bb9 f33e 713a fd41 91ba
00000270: 73da fcba 549b a13a 09a2 17bb 4744 e0ba
00000280: e68c cfb8 d6b6 0c3a 72cf d9b9 a4bd 92b9
00000290: c03e 34b8 60c5 13ba c408 51ba a020 e4b8
000002a0: a287 f1b9 dbe1 84ba 384a 5a37 9e7d ed39
000002b0: 7ad4 ad39 1513 81b9 f4ba 96b8 a262 44b9
000002c0: 96fd 1bba 6a38 93b9 69a8 68b8 5d26 beb9
000002d0: 5040 9139 e00f 92ba 907f 7239 5a94 403a
000002e0: da28 0a3b d6a8 a0b9 f486 86ba 12ab 363a
000002f0: 7d69 a2ba 26b1 9b38 abd7 2dba 6f57 ddb9
00000300: 98aa d338 c4d1 99ba 1cbc 5d38 5261 16b9
00000310: 19c9 84ba 6ea4 6038 c9dc 6639 9e71 3aba
00000320: fa65 36b9 f234 2b39 f0df 29ba 62b1 63b9
00000330: c0e4 6238 bc92 cfb9 46ba 03b8 ea82 13ba
00000340: 6edc 0b3a 8224 3a3a d0aa a438 80d0 c2ba
00000350: 100b b839 19dd 08bb 8cd4 f43a aa32 a239
00000360: 2737 1fbb 89eb 31bb 2a1c 30bb 80ed a0bb
00000370: f5e7 053a e2b9 55b9 fdcf aabb e82b 4abb
00000380: 38a7 05b8 c4bb a137 8889 fbb7 307f 70b9
00000390: ac4b 42b9 8702 01ba a601 34ba bc25 78b9
000003a0: f541 1aba 5ba3 24ba aab5 cd39 f8af 1cb9
000003b0: 0099 7cb9 e227 e839 de02 bd37 f8be 71b9
000003c0: 5af5 e139 324f b839 3f7a d2b7 5880 47b9
000003d0: bd51 3c3a 8ec2 873a 2fd7 0fbb bc5a 16bb
000003e0: a7f3 98ba 6ccf 90ba 646b 18bb 8c8b 28bb
000003f0: 4e30 3fba 1c94 c639 f9d2 7a3a bab7 58ba

encoder.4.bias f4 [64]
-1.2138247e-05 -0.00063143956 0.00090606284 0.0005671845 -0.0001222953 -0.103929125 0.00013913725 -0.00052984944
0.00020300644 -0.00044744194 0.041380074 0.0010552979 -0.00033141373 -0.0003050728 0.0005342887 0.0010401519
6.834745e-05 0.00038918617 0.000937767 0.0024377604 0.19673637 0.0007357154 6.2854175e-05 -0.00057936937
0.0008698934 -0.42976117 -0.034060597 -0.0011957949 -0.00017687879 -0.00043493882 0.0004216141 0.069267936
0.0012548524 -6.661223e-06 0.025277236 -0.07925801 -0.0005711188 -0.00024348541 -0.00087606424 -0.00050509186
0.00065398053 -0.001071678 0.00024473268 0.00049613137 -8.884359e-05 -9.324485e-05 0.00016302991 0.0004050948
-0.14640643 0.00052174384 -0.00014504293 0.1196132 -0.00026861558 0.0011554615 -0.00044804873 -0.00028952817
0.00017969048 -0.0011114068 0.0064728344 -0.06523763 0.216611 0.0005500822 -0.00094331463 -0.031516407
00000000: 60a5 4bb7 3187 25ba d984 6d3a 1caf 143a
00000010: 653c 00b9 cbd8 d4bd 5fe5 1139 98e5 0aba
00000020: 20de 5439 a496 eab9 277e 293d ec51 8a3a
00000030: 99c1 adb9 2ef2 9fb9 820f 0c3a b555 883a
00000040: c255 8f38 af0b cc39 7ad4 753a d5c2 1f3b
00000050: 4275 493e 06dd 403a 94d0 8338 d2e0 17ba
00000060: 8f09 643a a809 dcbe 2083 0bbd 38bc 9cba
00000070: 8a78 39b9 8008 e4b9 160c dd39 59dc 8d3d
00000080: dc79 a43a 7883 dfb6 3512 cf3c 0652 a2bd
00000090: 22b7 15ba 1e50 7fb9 ada7 65ba 2468 04ba
000000a0: e46f 2b3a 8c77 8cba 774f 8039 d00e 023a
000000b0: 8a51 bab8 738c c3b8 02f3 2a39 e762 d439
000000c0: 91eb 15be a3c5 083a aa16 18b9 c4f7 f43d
000000d0: f9d4 8cb9 db72 973a 15e8 eab9 d0cb 97b9
000000e0: 4c6b 3c39 a0ac 91ba 121a d43b 4e9b 85bd
000000f0: 46cf 5d3e 6433 103a c648 77ba 5917 01bd

encoder.6.weight f4 [128, 64, 1, 1]
2.2813192e-05 -0.0009516966 -0.00092926505 0.0010351615 0.002327668 9.142785e-05 0.00018399749 -0.0005787426
0.00056898623 -0.00017285394 0.00028371095 0.0015893411 0.0013597092 -0.0010141074 -0.0009368657 -0.00046613303
-3.661841e-05 0.0005264989 0.002078935 -0.00077404047 -3.4276534e-05 -0.00028072897 0.0011643588 -0.0020355461
-4.1533218e-05 -0.00015144165 -0.00066954293 -0.0014887748 0.0019070029 0.0008196408 -0.00017701785 0.00018892926
0.0014331497 -0.0004235505 -0.00015766593 -0.0009913705 -0.00026194748 0.00037670563 -0.0010038085 -0.0008340357
-0.0005340425 0.000646745 0.0008661945 0.00016254603 0.00019606652 -0.0013643038 -0.0020014027 -0.0007553615
7.487163e-05 0.0018960909 -7.8428966e-05 -0.00024155652 -0.00016481367 -0.00016963796 0.0011672955 -0.0008545347
-0.0017170769 0.00038414446 0.00062861416 -0.0022962166 -0.00026012817 0.0023007428 -0.002171019 0.0021044228
-0.00051207055 0.00056142634 0.00095555914 -9.707954e-05 -0.0011761277 0.06711617 0.001732356 -0.0019034735
-0.0009954515 -0.0017305944 -0.22084081 0.0022335462 0.0017050531 0.0009639444 0.00023132218 0.00020062958
-0.0016136327 0.0011058762 0.002012805 -0.053359076 0.060524285 -0.00013868761 0.00040962058 -0.0006521655
-0.0005055692 0.0061228294 0.06139673 0.06933114 0.00061127596 -0.0012545384 -0.0013419738 0.10338179
0.0012073279 -0.0014368534 0.2363337 0.14640024 0.00027823 -0.0006664373 -0.0022562793 -0.0013325317
0.0017483642 0.0013849109 -0.0010818321 -6.9229005e-05 -0.00050142326 -0.00015290803 -7.5025775e-05 -0.0003904573
-0.1367259 0.00082650664 0.0016522463 0.024414629 0.0003501317 0.0012322266 -0.0021273652 0.00024651573
0.00032562294 -0.0016653754 -0.22888401 -0.19854398 -0.13378692 0.00028341406 -0.00024731393 0.009889726
0.000121748744 -0.0003183825 0.0010219176 -0.0014645716 -0.0026701863 0.0004924334 0.00019838107 -0.0003910393
-0.0015493957 -0.0007467866 0.0005226563 -0.0002195038 -0.0005187049 0.0003680331 -0.00010537819 -0.0013065861
-0.00042496255 0.0010838901 -0.00030938792 -0.0012162114 -0.00057761546 -9.302028e-05 -0.0013694015 0.0005884592
-0.00030295894 -0.00030680816 0.0006743191 0.0005497767 -0.00090870453 -0.0005298823 -7.172297e-05 -0.00053973496
0.0012552218 -0.00071037817 -0.0004374512 0.00038187084 0.0006648245 -0.0013994417 -0.0016110572 -0.0014296148
0.002523139 0.00068673067 -8.776679e-05 0.0008501138 -0.0008826798 0.00030549496 -0.00025475587 0.00059220544
0.000528774 -0.0010844201 -0.00088194077 -0.0011579538 0.0013005786 0.0011028594 -0.0015049888 0.0015029511
0.00019408861 -0.0010786708 -0.0017052147 -0.00065722305 0.00092715654 -0.00090914185 0.001982772 -0.00058766344
-0.00036859524 0.00054973847 0.0015378115 0.0016370077 0.0018884222 -0.0005496569 0.0010380425 -0.00026723227
0.0020810207 0.00051796087 -0.0015599199 0.0019662178 0.0012881842 -0.0006880668 0.000698926 0.0017683504
-0.00085887813 0.0009965522 0.0019662082 -0.00017664951 -0.0004915852 0.00025769434 0.0021459952 -0.0014080649
0.0010955378 0.0002995757 -0.0018716766 0.00025360662 0.0022120136 -0.0006112987 -0.0022299532 0.00061540364
0.0009788002 0.0016269953 0.0004258484 -0.00044889102 0.0012483104 0.00015868005 -0.0020095855 -0.0012378083
0.00014713686 -0.0008993337 0.00014402528 -0.00033120543 -0.0009794973 -0.0017686047 0.001032427 0.0003948928
-0.0010426819 0.0010217238 0.0013873435 0.0013684008 -0.002190451 0.0012526874 -6.3188076e-05 0.00021994756
0.00020392294 -0.0011843037 -1.7676173e-05 -0.0015033846 -6.2588006e-05 0.0019864002 -0.0029187326 0.001619078
00000000: f55e bf37 477b 79ba ec99 73ba 42ae 873a
00000010: ca8b 183b f4bc bf38 73ef 4039 c2b6 17ba
00000020: 0528 153a 2040 35b9 0abf 9439 7051 d03a
00000030: 4538 b23a cceb 84ba fe97 75ba 5163 f4b9
00000040: b896 19b8 be04 0a3a be3e 083b fae8 4aba
00000050: 26c4 0fb8 ce2e 93b9 669d 983a cc66 05bb
00000060: f433 2eb8 4fcc 1eb9 4484 2fba fe22 c3ba
00000070: 66f4 f93a 2add 563a de9d 39b9 501b 4639
00000080: 86d8 bb3a fc0f deb9 2053 25b9 e0f0 81ba
00000090: ff55 89b9 9380 c539 3992 83ba 30a3 5aba
000000a0: fcfe 0bba 528a 293a 5411 633a 1e71 2a39
000000b0: 3597 4d39 70d2 b2ba f729 03bb 7403 46ba
000000c0: 6604 9d38 4186 f83a 3b7a a4b8 564a 7db9
000000d0: d5d1 2cb9 d8e0 31b9 f0ff 983a da02 60ba
000000e0: 8a0f e1ba ff66 c939 95c9 243a 1f7c 16bb
000000f0: d061 88b9 0fc8 163b a847 0ebb 5bea 093b
00000100: 793c 06ba af2c 133a 7d7e 7a3a 2e97 cbb8
00000110: 4c28 9aba 3474 893d 3910 e33a f97d f9ba
00000120: cf79 82ba 1dd5 e2ba 1824 62be b060 123b
00000130: 177c df3a 37b1 7c3a 138f 7239 1860 5239
00000140: 8780 d3ba 0cf3 903a 44e9 033b 0c8f 5abd
00000150: 50e8 773d ac6c 11b9 58c2 d639 16f6 2aba
00000160: 2d88 04ba 04a2 c83b 237b 7b3d 7cfd 8d3d
00000170: 093e 203a 536f a4ba 2be5 afba d5b9 d33d
00000180: 343f 9e3a cd54 bcba 7601 723e f2e9 153e
00000190: 66df 9139 dab3 2eba 16de 13bb 58a8 aeba
000001a0: 5e29 e53a e685 b53a 43cc 8dba 0a2f 91b8
000001b0: f271 03ba f055 20b9 2857 9db8 4bb6 ccb9
000001c0: e001 0cbe eca9 583a 3090 d83a 3001 c83c
000001d0: e291 b739 aa82 a13a 446b 0bbb c83e 8139
000001e0: 5fb8 aa39 ba48 daba 9260 6abe 1d4f 4bbe
000001f0: 70ff 08be 3197 9439 eaa9 81b9 8408 223c
00000200: 5c53 ff38 93ec a6b9 ddf1 853a def6 bfba
00000210: 4bfe 2ebb a516 013a 8304 5039 6804 cdb9
00000220: 1815 cbba 00c4 43ba df02 093a 9a2a 66b9
00000230: b2f9 07ba 91f4 c039 7cfe dcb8 c141 abba
00000240: 82cd deb9 5111 8e3a 5835 a2b9 4869 9fba
00000250: 1e6b 17ba e213 c3b8 7d7d b3ba d442 1a3a
00000260: 76d6 9eb9 18db a0b9 cac4 303a e41e 103a
00000270: 2136 6eba cde7 0aba fa69 96b8 007d 0dba
00000280: 4186 a43a ac38 3aba b559 e5b9 d635 c839
00000290: 9e47 2e3a 796d b7ba 1c2a d3ba ea61 bbba
000002a0: 3f5b 253b b705 343a 700f b8b8 2cda 5e3a
000002b0: a363 67ba d72a a039 c190 85b9 3c3e 1b3a
000002c0: 6c9d 0a3a 1a23 8eba 0b32 67ba 7bc6 97ba
000002d0: 2d78 aa3a d28d 903a 0b43 c5ba acfe c43a
000002e0: 4484 4b39 3062 8dba 8381 dfba 7e49 2cba
000002f0: 6c0c 733a 7a53 6eba 65f1 013b 6d0d 1aba
00000300: 0440 c1b9 531c 103a 6490 c93a dd90 d63a
00000310: ef84 f73a da16 10ba ed0e 883a 4f1b 8cb9
00000320: bc61 083b c4c7 073a 3a76 ccba a9db 003b
00000330: 4ad8 a83a 625f 34ba 2138 373a fec7 e73a
00000340: 5626 61ba be9e 823a 80db 003b fe3a 39b9
00000350: b9dd 00ba 261b 8739 d3a3 0c3b d18e b8ba
00000360: 2698 8f3a 5f10 9d39 0c53 f5ba 81f6 8439
00000370: 6ef7 103b 903f 20ba 6824 12bb 0a53 213a
00000380: 164b 803a e740 d53a 6844 df39 2259 ebb9
00000390: 599e a33a 5a63 2639 40b3 03bb f43d a2ba
000003a0: c048 1a39 43c1 6bba 7e05 1739 a4a5 adb9
000003b0: 7a62 80ba 87d0 e7ba 8052 873a 9d09 cf39
000003c0: 99aa 88ba 5deb 853a 86d7 b53a e95b b33a
000003d0: ab8d 0fbb 3731 a43a d783 84b8 b9a1 6639
000003e0: 26d4 5539 a33a 9bba 4b47 94b7 370d c5ba
000003f0: ae41 83b8 442e 023b 3548 3fbb 3e37 d43a

encoder.6.bias f4 [128]
-0.00018990063 0.07403845 0.00043696552 -0.00056081795 -0.0005474 0.00022376358 -0.00029833306 -0.040549025
0.0011665617 2.991251e-05 -7.962961e-05 -0.0005269297 -0.0015207432 -0.53248227 -0.00042649484 0.004889669
-0.00032080058 -0.00039421598 0.08999834 -0.0005523497 0.00015970621 0.00015250404 -2.1263913e-05 -0.00060649856
0.021204576 -0.0021824248 0.0010641812 -0.0015485461 0.00014817982 1.2773235e-05 -0.00027454036 0.00038263923
0.00028347352 -0.04151524 -0.00019189958 0.0006594424 0.0005829532 -0.010261636 0.0003816986 0.00038336043
-0.0001722729 0.00023145438 0.0010904658 -0.00060467573 -0.00037026056 0.00078269193 1.116201e-05 -0.00043423046
6.322839e-05 -0.00060859043 0.0008884635 0.00021905039 0.00037499925 -0.00018489786 -0.00032907422 7.127077e-05
-0.0011593755 0.00017367405 -0.0007041887 0.0009771094 0.00056906836 0.0005607705 -0.0007850892 -0.0005511313
0.0002208652 -0.00055944273 0.00026857128 0.0001578983 -0.00074021076 0.023481978 -0.0005909237 0.0004555608
0.000662992 -0.00015653958 0.040436324 -0.000497447 0.00042434185 -0.00021976927 0.0005276324 -0.0017440264
-0.00043399812 0.13649978 -0.00018026866 0.0011096932 0.00039468025 0.029569954 0.0008142862 -0.0011874973
0.00012952945 0.00047102105 0.040481947 -0.00024908973 -0.0008229506 -0.00053375075 0.00095506327 0.0010913486
0.011070872 0.00032251037 0.0003933374 -0.0003007586 -1.1234919e-05 -0.00067774986 -0.14953974 0.0004352871
0.0016124995 -0.00015284486 -5.97655e-05 0.0002617953 0.00019288069 -0.0002509927 0.0023623654 0.00031715696
-0.00024842855 9.0517555e-05 -0.00045077814 -0.00057325466 -0.00060488883 0.00027365738 -0.00020046273 0.00018506742
0.00061230117 -0.00020464319 -0.00046949156 -0.00066953205 -0.00045100748 0.0003699073 0.0003144361 -0.0006160678
00000000: 1020 47b9 79a1 973d 8518 e539 db03 13ba
00000010: 647f 0fba 14a2 6a39 9669 9cb9 bc16 26bd
00000020: 51e7 983a a0ec fa37 d2fe a6b8 a721 0aba
00000030: ad53 c7ba c250 08bf 2b9b dfb9 8439 a03b
00000040: 2031 a8b9 c6ae ceb9 0d51 b83d 90cb 10ba
00000050: cf76 2739 7ee9 1f39 e85f b2b7 6efd 1eba
00000060: 38b5 ad3c 0307 0fbb ff7b 8b3a 96f8 caba
00000070: b860 1b39 a04c 5637 2ff0 8fb9 f89c c839
00000080: 2c9f 9439 e20b 2abd a738 49b9 6ede 2c3a
00000090: 54d1 183a 6c20 28bc b81e c839 c4fd c839
000000a0: 28a4 34b9 90b2 7239 f6ed 8e3a 1a83 1eba
000000b0: 881f c2b9 912d 4d3a 7844 3b37 6da9 e3b9
000000c0: 7c99 8438 d089 1fba c7e7 683a e4b0 6539
000000d0: 8c9b c439 24e1 41b9 9887 acb9 3477 9538
000000e0: 30f6 97ba 461c 3639 4e99 38ba 5a12 803a
000000f0: 882d 153a ac00 133a 72ce 4dba cc79 10ba
00000100: 0d98 6739 91a7 12ba 07cf 8c39 8191 2539
00000110: b40a 42ba 475d c03c 38e8 1aba 56d8 ee39
00000120: a4cc 2d3a c624 24b9 8fa0 253d 1a67 02ba
00000130: 337a de39 dd71 66b9 d050 0a3a d197 e4ba
00000140: 3e8a e3b9 99c6 0b3e 8006 3db9 2073 913a
00000150: 16ed ce39 b03c f23c d275 553a cca5 9bba
00000160: 4cd2 0739 60f3 f639 66d0 253d 4298 82b9
00000170: 48bb 57ba 68eb 0bba 365d 7a3a 950b 8f3a
00000180: 9a62 353c 9c16 a939 da38 ce39 23af 9db9
00000190: 9c7d 3cb7 06ab 31ba f220 19be 3f37 e439
000001a0: 815a d33a fb44 20b9 b8ac 7ab8 9241 8939
000001b0: 0440 4a39 ac97 83b9 ead1 1a3b 1648 a639
000001c0: 843f 82b9 3ed4 bd38 6b56 ecb9 7846 16ba
000001d0: 6791 1eba ac79 8f39 4e33 52b9 a80e 4239
000001e0: d682 203a 7d95 56b9 1726 f6b9 8983 2fba
000001f0: 3375 ecb9 1ef0 c139 e6da a439 9c7f 21ba

fc_mu.weight f4 [16, 512]
-0.0005264465 0.0005241623 -0.00092374696 0.0016057786 -0.09959355 -0.03064292 0.20173001 -0.05301951
0.00035066428 0.00043782365 -0.00042028705 -0.0011681039 -0.0010556728 -0.00065834087 0.0010744501 0.0007268649
-0.0012651543 0.0013336078 0.00031792093 0.0012502605 -0.00054790505 0.00031996082 -0.00016494966 -0.0001118894
-0.0011598356 -3.53426e-06 -0.00021395707 0.0013662847 -0.04753068 -0.037998945 -0.16691162 -0.010471359
-0.0014255017 0.00041874443 -0.001352991 -0.00039482958 -0.0012840759 0.000842958 -0.0012859504 0.0020813919
0.0010009104 -7.095488e-05 0.0017295115 -0.0015239252 0.0006795233 -0.0006855939 -0.00075059186 -0.0007087716
-0.00018005885 -0.0005402974 0.00096096034 0.0019518705 -0.048983097 0.046214294 -0.0054756855 -0.01095713
-0.0009078898 -3.4987752e-06 -7.7413584e-05 0.00018438297 -0.03106979 0.0066957995 0.02967183 -0.015190288
0.0018993794 0.00033362093 -0.00052011857 0.0007655495 -0.00021973677 0.00022743757 0.00012241196 0.0001640534
0.11943712 -0.05194813 -0.080452666 -0.17045107 0.0013104846 -0.0012412707 0.00032150862 0.0012350513
-0.0003951823 0.00019063504 -0.0011335792 0.00050608045 0.0012541304 -0.00090843195 0.0011710983 -0.0004482441
-0.00027004944 0.00028382934 0.0003290641 -0.00057900406 0.0014414052 -0.0010487151 0.0018333165 -0.000880278
-0.04927593 0.04686517 -0.09994365 0.050250612 -0.07651798 0.030121809 0.0043159015 -0.04955653
-0.0020937766 0.001350791 -0.00019767319 0.0013441393 0.00034925167 2.211894e-05 -0.00034354796 0.0019890864
0.0011529513 6.594174e-05 0.000641558 0.0005430546 0.0005023059 -0.0013763906 0.00048110075 -0.00072131766
-0.0004478422 0.0010587205 -0.0012989908 0.0012047419 -0.0012377831 -0.0006372689 -0.0016188298 0.001374192
-0.00065946544 -0.00045286218 9.4567e-05 4.436582e-05 -0.14880945 0.03047798 0.0113172345 0.014370695
-0.00035916327 -0.00021692528 -0.0013714165 -0.0014738303 -0.002232728 -0.0004935482 -0.00067434856 0.000494248
0.00033501262 -0.00037781056 -0.0010201694 -0.001263134 0.00015881378 0.041734695 -0.11871524 0.015506638
-0.001298568 0.0014096124 -0.00227621 0.001132538 -0.0015977225 -0.00053714355 -6.783321e-05 -0.0010222693
-0.0020714256 0.0009611441 0.0012062101 0.0013096604 0.002246929 -0.00048658677 0.0015657198 -0.0005026789
-0.0006019032 -0.00068546017 0.00012482845 -0.0008471627 -0.00018808385 -0.0019368317 0.0005221511 -3.436039e-05
-1.6090926e-06 -0.0008699188 -0.0002996761 -0.00063928595 -0.001076076 -0.0006994601 -0.00078001304 -0.00021216989
-0.0006231939 -0.0022264898 -2.2715656e-05 -0.0015296127 -0.0011838139 0.0007857405 -6.593634e-05 2.5291956e-06
-0.0010548822 0.002059502 -0.0004254806 0.0024609356 0.0017340893 -0.0004814162 0.0005855047 -0.0009123309
-0.00042312464 0.00044571375 -3.0132811e-05 0.00029299367 -0.0009203863 -0.00053282065 -0.00012424207 -0.0016553069
-0.001125507 0.0017301099 -8.52613e-05 0.0009724669 -0.00072095386 -0.0007409862 0.00039679167 0.0004233889
-0.0009256521 0.0008744176 -0.00040714687 0.0018441746 -0.0012557391 0.0010225074 -0.0019884203 0.00041657063
8.253373e-05 0.0004120589 -7.4743315e-05 0.00133793 0.0017330039 -0.00085666456 0.00084305846 -0.002372216
-0.00030426757 0.00010256177 -0.0014311305 0.0010010845 0.0009465056 -1.0663876e-05 0.00069631723 -0.00085002015
-0.0006342999 -0.0010590501 0.00021821547 -0.0014844348 0.000100657824 0.000621693 -0.0013041351 -0.0015854777
0.0015397926 -0.0010978244 -0.0005449985 -0.0010096427 0.0003208463 -0.0001453163 0.0007038366 -0.0018174514
00000000: 3a01 0aba f067 093a 9c27 72ba fd78 d23a
00000010: b4f7 cbbd dc06 fbbc 5092 4e3e fc2a 59bd
00000020: 5dd9 b739 b28b e539 f959 dcb9 101b 99ba
00000030: 805e 8aba 8294 2cba 90d4 8c3a 148b 3e3a
00000040: 89d3 a5ba 74cc ae3a a0ae a639 c8df a33a
00000050: 49a1 0fba 6ac0 a739 56f6 2cb9 2aa6 eab8
00000060: a005 98ba 202e 6db6 aa59 60b9 e814 b33a
00000070: 88af 42bd c8a4 1bbd e1ea 2abe 1090 2bbc
00000080: e6d7 baba ed8a db39 d856 b1ba 2101 cfb9
00000090: 704e a8ba f4f9 5c3a 568d a8ba f667 083b
000000a0: fb30 833a 9ccd 94b8 c7b0 e23a 72be c7ba
000000b0: 0922 323a 6eb9 33ba 5ec3 44ba dbcc 39ba
000000c0: 2ece 3cb9 bfa2 0dba f5e8 7b3a e8d5 ff3a
000000d0: 80a2 48bd 334b 3d3d 616d b3bb 8985 33bc
000000e0: 74ff 6dba 80cc 6ab6 1a59 a2b8 ed56 4139
000000f0: 1286 febc 7068 db3b 5612 f33c b0e0 78bc
00000100: 99f4 f83a d8e9 ae39 9158 08ba 28af 483a
00000110: 2469 66b9 4f7c 6e39 b65b 0039 c005 2c39
00000120: 739b f43d 90c7 54bd 5ec4 a4bd ba8a 2ebe
00000130: 91c4 ab3a 22b2 a2ba 2890 a839 72e1 a13a
00000140: 7830 cfb9 34e5 4739 9b94 94ba 7caa 043a
00000150: a261 a43a d623 6eba 8a7f 993a 4e02 ebb9
00000160: 6c95 8db9 eece 9439 3c86 ac39 4ec8 17ba
00000170: 88ed bc3a 0a75 89ba e54b f03a 75c2 66ba
00000180: 8fd5 49bd b1f5 3f3d 42af ccbd 96d3 4d3d
00000190: 75b5 9cbd 03c2 f63c 686c 8d3b cafb 4abd
000001a0: be37 09bb 060d b13a 7e46 4fb9 d52d b03a
000001b0: c41b b739 108c b937 3a1e b4b9 555b 023b
000001c0: a01e 973a 344a 8a38 3b2e 283a c75b 0e3a
000001d0: 2ead 033a 0168 b4ba 403c fc39 cf16 3dba
000001e0: 5dcc eab9 c4c4 8a3a e642 aaba 6ee8 9d3a
000001f0: 1c3d a2ba 640e 27ba ea2e d4ba 3b1e b43a
00000200: fadf 2cba 226e edb9 4652 c638 7015 3a38
00000210: 8161 18be f5ac f93c ec6b 393c 1073 6b3c
00000220: 144e bcb9 7076 63b9 1ac1 b3ba 8a2d c1ba
00000230: f652 12bb 7661 01ba c4c6 30ba 6c90 013a
00000240: a2a4 af39 e014 c6b9 34b7 85ba be8f a5ba
00000250: 4087 2639 00f2 2a3d fa20 f3bd 8e0f 7e3c
00000260: b634 aaba bec2 b83a 782c 15bb ab71 943a
00000270: ac6a d1ba 18cf 0cba ad41 8eb8 aafd 85ba
00000280: c1c0 07bb 4af5 7b3a b219 9e3a e9a8 ab3a
00000290: 3741 133b 921c ffb9 d738 cd3a 36c6 03ba
000002a0: 0ac9 1dba 74b0 33ba 62e4 0239 2014 5eba
000002b0: 6038 45b9 4add fdba f8e0 083a 301e 10b8
000002c0: 00f8 d7b5 430b 64ba d81d 9db9 c195 27ba
000002d0: 1e0b 8dba f95b 37ba ca79 4cba ec79 5eb9
000002e0: d65d 23ba 4dea 11bb 808d beb7 497d c8ba
000002f0: 342a 9bba 27fa 4d3a 4e47 8ab8 40bb 2936
00000300: f943 8aba b6f8 063b 0a13 dfb9 a647 213b
00000310: 624a e33a 9766 fcb9 8e7c 193a 7e29 6fba
00000320: d4d6 ddb9 b0ae e939 b8c5 fcb7 f29c 9939
00000330: 1446 71ba fdac 0bba fa46 02b9 e2f6 d8ba
00000340: c085 93ba dbc4 e23a 50ce b2b8 26ed 7e3a
00000350: 65fe 3cba be3e 42ba 7a08 d039 4cfa dd39
00000360: 76a7 72ba 2c39 653a 5476 d5b9 3bb8 f13a
00000370: 9d97 a4ba a805 863a 2850 02bb 2a67 da39
00000380: f515 ad38 9c09 d839 83bf 9cb8 7b5d af3a
00000390: f625 e33a c991 60ba b200 5d3a 2e77 1bbb
000003a0: 1a86 9fb9 6e16 d738 c594 bbba d236 833a
000003b0: ea1e 783a 00e9 32b7 0f89 363a e3d3 5eba
000003c0: 2547 26ba d3cf 8aba c5d0 6439 5e91 c2ba
000003d0: 4218 d338 1cf9 223a 83ef aaba cecf cfba
000003e0: ded2 c93a e0e4 8fba 3bde 0eba fd55 84ba
000003f0: 4337 a839 0c60 18b9 ad81 383a 8d37 eeba

fc_mu.bias f4 [16]
-0.056865513 -0.025961984 -0.037611466 -0.15763658 -0.011333473 0.029649114 -0.04638401 -0.028726991
-0.007999684 -0.057608493 -0.023342999 0.03898388 -0.11356216 -0.026940184 -0.06706913 -0.038110986
00000000: d0eb 68bd 3aae d4bc 7b0e 1abd 7c6b 21be
00000010: 08b0 39bc b3e2 f23c 29fd 3dbd de54 ebbc
00000020: 1b11 03bc e2f6 6bbd d139 bfbc 90ad 1f3d
00000030: 4793 e8bd a9b1 dcbc 8a5b 89bd 441a 1cbd

fc_log_var.weight f4 [16, 512]
0.00017405704 -9.569373e-05 0.00019425669 -5.9193575e-05 0.009713206 -0.0043368405 0.005183229 -0.005284117
0.00017548844 0.00027483384 0.0002319699 0.00031853042 6.957441e-05 0.00030243586 0.00013506708 0.00046788476
0.00024174807 0.000104646984 0.0002871112 0.00010452034 -6.26448e-05 0.00029737136 6.901909e-05 0.00038557156
-0.00011643139 -0.00019290615 9.983727e-06 -0.00023033406 -0.0072786314 0.0049708807 -0.0075108893 -0.0019245348
-3.63022e-05 0.00017950851 -5.3137344e-05 0.00016851009 -6.599766e-05 -0.00012531789 -0.00015007312 -7.8626654e-05
-4.8492424e-05 0.00021418439 0.00017738278 0.000222447 -0.00014546109 -5.12249e-05 -4.0130977e-05 -4.9055438e-05
-3.5211797e-06 8.7207416e-05 -4.998967e-05 0.000104944236 0.47319862 0.34732816 0.46728736 0.34853327
-0.00013819116 -0.00034843656 1.4471472e-05 -0.00026369988 0.00018931151 -0.00038197957 -0.000475122 0.00025726476
0.00016078944 -0.00010593599 1.8094132e-05 -0.00023614021 -0.00014943634 -0.0003797045 -0.000115239265 -0.00041226202
-0.01065352 -0.0039712377 -0.014308551 -0.012314037 -5.1139974e-05 -0.00024108552 -7.187418e-05 -0.0002325077
-2.1644788e-05 -0.00016904637 -4.174337e-06 -0.00026278113 0.00016037162 -7.342564e-05 3.824117e-05 -0.000113569666
0.00025686884 0.00023752777 8.756734e-05 0.00022093419 -0.00012283416 -0.0002999816 -0.000110636814 -0.00040602303
-0.006357354 0.0006384036 8.19352e-05 0.0014265162 -0.013755547 0.005081241 -0.014770739 4.470037e-05
2.4259738e-05 0.00038331124 4.574025e-05 0.00035660545 0.00014954872 -0.00022844612 2.7802475e-05 -0.00018650583
0.00014812608 0.0002420617 7.6387114e-05 0.00023624825 1.1523005e-05 -2.2944716e-05 8.088239e-05 -1.8384666e-05
0.00041957165 -1.6839527e-05 0.00034915534 0.00012783441 0.00042214376 -7.222411e-05 0.00014182238 6.9146045e-05
0.00021127866 -5.6999386e-05 8.430802e-05 3.916994e-05 0.0035457418 0.0038868773 -0.004681212 0.0020652693
-0.00034171843 -0.00030868503 -0.00047069808 -0.00027986127 0.00026697892 0.00029109663 0.00011836126 0.0003756285
-4.3341603e-05 6.1213366e-05 9.0047055e-05 9.038481e-05 -0.00081223086 0.002442202 -0.0013097782 -1.7035927e-05
0.00013022877 -8.266491e-05 0.0001121999 -9.056093e-05 0.00014597565 -3.701263e-05 -3.2734708e-05 6.241739e-05
0.00013995358 0.00038189808 0.00013772711 0.00048868655 9.8166376e-05 1.8370629e-05 -9.699204e-05 -6.523663e-05
0.00015805125 -0.00030183385 8.091535e-05 -0.00029997618 -9.98699e-05 0.00022155093 -7.955568e-06 0.00035706768
-0.00027180527 4.004498e-06 -0.00020741037 -7.199584e-05 -9.9741614e-05 1.3766981e-05 -9.117144e-05 6.150899e-05
4.0692274e-05 -9.903557e-05 -0.00013252451 -3.2323147e-05 1.0547872e-05 -0.00018491628 -0.000103170794 -0.00025418127
-8.58791e-05 0.00016760158 0.00026649665 9.43673e-05 -5.456841e-05 -0.0002828648 -5.1476763e-05 -0.00034614548
0.00025935023 0.0003671486 0.0002769856 0.00039491084 -0.00023512269 -7.5189666e-05 -0.00023393525 -6.560271e-05
0.00022601009 3.948498e-05 0.0003668115 -7.685369e-05 -0.000209863 0.00011094178 -6.524219e-05 9.5039104e-05
7.482161e-05 0.00014806414 9.75429e-05 8.385325e-05 -3.987961e-05 -0.00046014297 -0.00013097377 -0.0004933176
-0.000293955 -0.00024091604 -0.00013940834 -0.00022496915 0.00017516792 0.00031896698 0.00014113898 0.00040827435
4.5176574e-05 5.2891966e-05 0.00012953323 0.00015203076 -0.00012465977 -3.7005622e-05 -0.00012521283 -5.898926e-05
0.00012317169 -4.9875183e-05 -1.3505094e-05 3.2336447e-06 0.00015250122 0.00022900724 5.9087823e-05 0.00025458256
-0.00048630364 -0.00013362609 -0.00022869647 -0.0002121642 -0.00016599256 -0.00020256947 -5.8198257e-05 -0.00022969661
00000000: 1583 3639 2eaf c8b8 62b1 4b39 9e46 78b8
00000010: 2424 1f3c 0e1c 8ebb 14d8 a93b 6326 adbb
00000020: 5203 3839 9317 9039 f23c 7339 6e00 a739
00000030: 7ae8 9138 4190 9e39 cba0 0d39 6e4e f539
00000040: c17d 7d39 ec75 db38 6a87 9639 ee31 db38
00000050: 2c60 83b8 82e8 9b39 57be 9038 8a26 ca39
00000060: a02c f4b8 da46 4ab9 c87f 2737 d485 71b9
00000070: 9681 eebb c5e2 a23b e81d f6bb ac40 fcba
00000080: 3143 18b8 733a 3c39 cadf 5eb8 15b2 3039
00000090: 3968 8ab8 c467 03b9 f25c 1db9 5de4 a4b8
000000a0: 5864 4bb8 af96 6039 d4ff 3939 a940 6939
000000b0: ea86 18b9 51da 56b8 4f52 28b8 e0c0 4db8
000000c0: 684d 6cb6 20e3 b638 00ac 51b8 8215 dc38
000000d0: 1747 f23e ffd4 b13e 4a40 ef3e f472 b23e
000000e0: 68e7 10b9 5dae b6b9 80ca 7237 3341 8ab9
000000f0: ec81 4639 6e44 c8b9 cc19 f9b9 7ee1 8639
00000100: 9699 2839 f429 deb8 dac8 9737 689c 77b9
00000110: 03b2 1cb9 1313 c7b9 9cac f1b8 df24 d8b9
00000120: 1a8c 2ebc 2821 82bb 6a6e 6abc d1c0 49bc
00000130: 217f 56b8 e7cb 7cb9 28bb 96b8 4fcd 73b9
00000140: d491 b5b7 0a42 31b9 4811 8cb6 e3c5 89b9
00000150: 6e29 2839 17fc 99b8 2565 2038 402c eeb8
00000160: 5aac 8639 e010 7939 5ca4 b738 92aa 6739
00000170: 0bcd 00b9 d946 9db9 b005 e8b8 7ddf d4b9
00000180: 5a51 d0bb 8a5a 273a a0d4 ab38 f1f9 ba3a
00000190: f25e 61bc 8a80 a63b f800 72bc a87c 3b38
000001a0: 6481 cb37 2af7 c839 38d9 3f38 c6f6 ba39
000001b0: 2ed0 1c39 0a8b 6fb9 5c39 e937 c790 43b9
000001c0: 4b52 1b39 f1d1 7d39 0532 a038 68b9 7739
000001d0: ee52 4137 6779 c0b7 679f a938 c538 9ab7
000001e0: f4f9 db39 9c42 8db7 d60e b739 4a0b 0639
000001f0: 2d53 dd39 0677 97b8 28b6 1439 8002 9138
00000200: af8a 5d39 a012 6fb8 86ce b038 674a 2438
00000210: ad5f 683b fbba 7e3b da64 99bb 7859 073b
00000220: ac28 b3b9 01d7 a1b9 07c8 f6b9 58ba 92b9
00000230: 4ef9 8b39 549e 9839 b838 f838 01f0 c439
00000240: b1c9 35b8 ad5f 8038 a5d7 bc38 fa8c bd38
00000250: e4eb 54ba 5a0d 203b ddac abba 60e8 8eb7
00000260: 058e 0839 635c adb8 dd4c eb38 87eb bdb8
00000270: 0a11 1939 023e 1bb8 a04c 09b8 15e6 8238
00000280: 81c0 1239 7e39 c839 d76a 1039 331b 003a
00000290: acde cd38 a01a 9a37 3468 cbb8 a6cf 88b8
000002a0: 8fba 2539 743f 9eb9 19b1 a938 1f46 9db9
000002b0: 3f71 d1b8 2050 6839 e878 05b7 d034 bb39
000002c0: 1681 8eb9 605e 8636 4c7c 59b9 79fc 96b8
000002d0: 5f2c d1b8 bcf8 6637 4b33 bfb8 63fe 8038
000002e0: ffac 2a38 51b1 cfb8 47f6 0ab9 b792 07b8
000002f0: c4f6 3037 16e6 41b9 665d d8b8 a243 85b9
00000300: fe19 b4b8 35be 2f39 93b8 8b39 0fe7 c538
00000310: 62e0 64b8 794d 94b9 c1e8 57b8 dc7a b5b9
00000320: 66f9 8739 da7d c039 6138 9139 090c cf39
00000330: 448b 76b9 25af 9db8 844c 75b9 3094 89b8
00000340: 1ffd 6c39 ad9c 2538 9b50 c039 832c a1b8
00000350: ac0e 5cb9 6aa9 e838 a2d2 88b8 bb4f c738
00000360: 8ce9 9c38 aa41 1b39 f28f cc38 5fda af38
00000370: 6844 27b8 583f f1b9 0156 09b9 fc51 01ba
00000380: f91d 9ab9 689e 7cb9 242e 12b9 b2e5 6bb9
00000390: 48ad 3739 063b a739 b5fe 1339 a80d d639
000003a0: fa7b 3d38 51d8 5d38 50d3 0739 726a 1f39
000003b0: 1ab7 02b9 7c36 1bb8 904b 03b9 3c6b 77b8
000003c0: a627 0139 1231 51b8 f093 62b7 9801 5936
000003d0: bce8 1f39 aa21 7039 11d5 7738 7e79 8539
000003e0: 92f6 feb9 fb1d 0cb9 3ece 6fb9 6578 5eb9
000003f0: 4a0e 2eb9 d468 54b9 e719 74b8 b7da 70b9

fc_log_var.bias f4 [16]
-0.058111142 -0.05475844 -0.062235687 -0.05597121 -0.05925517 -0.061992005 -0.060197964 -0.05917757
-0.056943506 -0.062483244 -0.053900495 -0.059321485 -0.058982436 -0.05833048 -0.064828105 -0.05826656
00000000: f305 6ebd 634a 60bd d9ea 7ebd 1142 65bd
00000010: 8db5 72bd 54eb 7dbd 2492 76bd 2e64 72bd
00000020: 983d 69bd 6eee 7fbd c4c6 5cbd 16fb 72bd
00000030: 9197 71bd f1eb 6ebd 99c4 84bd eba8 6ebd
